models/global_lstm_state(1).pth (torch, 96684 bytes, 8 tensors)

store_emb.weight f4 [45, 4]
0	0xbeacd667	-0.33757326
1	0x405464f7	3.3186624
2	0xbf0330d4	-0.5124638
3	0x40291c4b	2.6423519
4	0xbed0f11b	-0.4080895
5	0x3f650025	0.89453346
6	0xbee350dc	-0.44397628
7	0x40727126	3.788156
8	0x40a12e44	5.0368977
9	0xbf8cf82a	-1.1013234
10	0x3eba5e92	0.36400276
11	0xbf6ed16e	-0.93288314
12	0xbf19e72e	-0.6011838
13	0xc015cf28	-2.3407688
14	0xbfa06b12	-1.2532675
15	0x4055c72b	3.3402812
16	0x4030b6cd	2.7611573
17	0x3fb96374	1.4483476
18	0x404f10b5	3.2353947
19	0xc065b5a2	-3.589211
20	0xc07f4958	-3.9888515
21	0x3f874c51	1.0570165
22	0x3f29e723	0.6636831
23	0xc08763ee	-4.2309484
24	0x3f331593	0.69954795
25	0x40441fd8	3.0644436
26	0x4020e6f3	2.514096
27	0xc02ff0fd	-2.7490838
28	0x3fed68aa	1.8547566
29	0x3f27506a	0.6535708
30	0x3ffd1107	1.9770821
31	0xc0a4199a	-5.128125
32	0x403ca920	2.9478226
33	0x3f7de9da	0.99184954
34	0x4072d484	3.794221
35	0xc066f887	-3.608919
36	0xc06cc78f	-3.69968
37	0xc01fb808	-2.4956074
38	0xc04f5c55	-3.2400105
39	0x3f6bc4b3	0.92097014
40	0x3fc6b752	1.5524695
41	0xc07d19d9	-3.9547026
42	0x3fa68973	1.3010696
43	0xbfc18a89	-1.5120403
44	0x4071772e	3.7728992
45	0xbf65a27c	-0.89701056
46	0xc02facc2	-2.7449193
47	0x3fe76789	1.8078471
48	0x3ff7a2df	1.9346579
49	0xbf22ab79	-0.63542897
50	0xc024a721	-2.5727007
51	0xbf6c398a	-0.922753
52	0xbfef9a6d	-1.8719002
53	0xc00ed135	-2.231519
54	0x3f9212ad	1.1411949
55	0x402c2122	2.6895223
56	0x3fc6d49a	1.5533631
57	0xbf9ea475	-1.2393938
58	0x40ac1a7f	5.3782344
59	0xc038f05a	-2.88967
60	0x4028ffe8	2.6406193
61	0x40878ec1	4.236176
62	0x3f9acaf7	1.209319
63	0xbfc7ab0f	-1.5599078
64	0x3e8f38f8	0.2797315
65	0x4027f326	2.6242156
66	0x40207891	2.5073588
67	0x3f05cee1	0.522688
68	0x3f0cc420	0.54986763
69	0xc02bf769	-2.6869757
70	0x401d109f	2.4541395
71	0x3f8f701e	1.120609
72	0xbf0c1592	-0.54720414
73	0x3f26941f	0.65069765
74	0x3fe6065f	1.7970694
75	0xbfd3d259	-1.6548568
76	0xc04e47a6	-3.223123
77	0x3f013d5e	0.50484264
78	0xbeabe7a9	-0.3357518
79	0x40356126	2.8340545
80	0x40a76583	5.2311416
81	0xc079fc03	-3.9060066
82	0x3ea5135e	0.32241338
83	0x4059fbb0	3.4059868
84	0xbfcc0f4a	-1.5942166
85	0x3ee5e828	0.44903684
86	0x40379cba	2.8689408
87	0x3db90f9f	0.090361826
88	0xc0005e54	-2.0057573
89	0x3f367898	0.7127776
90	0xbf1f8009	-0.6230474
91	0xbfc8f6cd	-1.5700318
92	0xc000aa69	-2.010401
93	0xbc562a2a	-0.013071576
94	0x4057a946	3.3697066
95	0xbe6a2ff4	-0.22869855
96	0x3feab2b9	1.8335792
97	0x3f4948fe	0.78627
98	0x4088e791	4.2782674
99	0xbe33493c	-0.17508405
100	0x4010e0cc	2.2637205
101	0x4025c371	2.5900538
102	0x40870bcf	4.2201915
103	0xbf16cab9	-0.5890308
104	0xbf56a3eb	-0.8384387
105	0xbf7b3df5	-0.98141414
106	0x3f15fef3	0.58592147
107	0x40025293	2.03629
108	0x4073dc61	3.8103259
109	0xc051c1b7	-3.2774484
110	0x3f990d73	1.1957229
111	0x3fd9c41f	1.7012976
112	0x408cd888	4.401432
113	0xc012b9d2	-2.2925916
114	0x40a4b8ab	5.1475425
115	0x3efd9c85	0.49533477
116	0x3f7197f6	0.943725
117	0x3edafdad	0.42771664
118	0x409fa714	4.9891453
119	0xc014e163	-2.3262565
120	0x3ff80330	1.9375973
121	0x3fb9cc8b	1.4515547
122	0x407c0d62	3.9383168
123	0x4099f13c	4.8106976
124	0x40300e91	2.750889
125	0x3f7c8072	0.9863349
126	0x3fd2273c	1.6418223
127	0xbfb1ec22	-1.3900187
128	0x40d799a6	6.737506
129	0x41038c9f	8.221831
130	0xbfb85ad1	-1.4402715
131	0xbfe51a6d	-1.789869
132	0x408db399	4.4281735
133	0xbf62fb41	-0.88664633
134	0x403337f8	2.800291
135	0xbfbbb020	-1.4663124
136	0x3f96dd24	1.1786237
137	0xc0da3dd7	-6.820049
138	0x3f8b1811	1.086672
139	0x3e592720	0.21206331
140	0x4036792b	2.8511455
141	0x4119b833	9.6074705
142	0xc08b9103	-4.3614516
143	0xbdfdafc1	-0.12387038
144	0x3fbab7d7	1.4587353
145	0xbf18f284	-0.5974505
146	0x404d8417	3.2111871
147	0xbfe93486	-1.8219154
148	0x40017505	2.0227673
149	0x3ec958f0	0.39325666
150	0x40ac07fb	5.375974
151	0xc04bd626	-3.1849456
152	0x3fec6717	1.846896
153	0xbef7a0e6	-0.48364943
154	0x3f143343	0.5789072
155	0x3e34a8cb	0.17642514
156	0x3d98acde	0.07454847
157	0x406b1f5b	3.6737888
158	0x40919e31	4.5505605
159	0xbf7b56b4	-0.98179173
160	0x402d983b	2.7124164
161	0x3f5a6cb2	0.85322106
162	0x3fc9f944	1.5779195
163	0xbfba23e8	-1.4542208
164	0x3e7ac156	0.24487814
165	0x3f9c618f	1.2217273
166	0x4087adbd	4.2399583
167	0x3fbf5e75	1.4950701
168	0xbdc09575	-0.09403507
169	0x4000294e	2.002521
170	0x400bfde4	2.1873713
171	0xbe56d711	-0.20980479
172	0x40ea64f7	7.324825
173	0xbc05b47b	-0.008160706
174	0x405a5be0	3.4118576
175	0xc01ae999	-2.4205077
176	0xbd66f78f	-0.056388434
177	0xbf6053f4	-0.876281
178	0x40af7e91	5.4842
179	0x3fcc4d2a	1.5961049

dept_emb.weight f4 [81, 8]
0	0xbe849151	-0.25892118
1	0xbf6b17ea	-0.91833365
2	0x3f8f1556	1.1178386
3	0x405bb86f	3.433132
4	0xbf834abe	-1.0257185
5	0xc00e96ea	-2.227961
6	0xc00cad39	-2.1980727
7	0x40099f22	2.1503377
8	0x3fbf9d92	1.4969962
9	0x3f578cfb	0.84199494
10	0xc01b007c	-2.4219046
11	0x40e34cf4	7.1031437
12	0x3f9a0b3c	1.2034678
13	0x3ff1f836	1.8903873
14	0x407c2326	3.9396453
15	0x3ea0f0ca	0.31433707
16	0xbf11a6cc	-0.56895137
17	0xc03dc286	-2.9649978
18	0xbf262010	-0.64892673
19	0xbf9eff4c	-1.242166
20	0x3d60ff16	0.05493077
21	0x40837350	4.107826
22	0x3f8c3d34	1.0956178
23	0x405f482a	3.4887795
24	0xbf2c8d99	-0.6740356
25	0xc008f482	-2.1399236
26	0xc096191d	-4.6905656
27	0x40f896b0	7.7683945
28	0xc04213db	-3.032462
29	0xbf4b8e02	-0.7951356
30	0xbfaeaa9a	-1.3645813
31	0xbfff8265	-1.9961668
32	0x4035d18d	2.840915
33	0xbff939fa	-1.9470818
34	0x400d787e	2.2104793
35	0x3fbbb826	1.4665573
36	0x3ea5544b	0.32290873
37	0x3f80a0b8	1.0049047
38	0xbfaa3e5a	-1.3300278
39	0xc0012da8	-2.0184116
40	0x40d4ea0c	6.65357
41	0xc02e3de9	-2.7225287
42	0x3c09549e	0.008381991
43	0xbfb6f895	-1.4294611
44	0xc0646c86	-3.5691237
45	0x40a8fb4d	5.2806764
46	0xc05168c2	-3.272019
47	0x3f5ad992	0.85488236
48	0x4047628a	3.1153893
49	0x3fed8b25	1.8558089
50	0x3f000099	0.5000091
51	0x3f7a7513	0.9783489
52	0x3e122c1a	0.14274636
53	0x3fc626f5	1.5480639
54	0xbfc1a976	-1.512984
55	0xbee66c5f	-0.45004556
56	0xbf389f12	-0.7211772
57	0xc0b4700d	-5.638678
58	0xc08c45ff	-4.3835444
59	0x40a22ea0	5.0681915
60	0x4017525e	2.3644023
61	0xbec73ed3	-0.3891512
62	0xbf20fd00	-0.6288605
63	0x3eee9b79	0.4660299
64	0x3eda674f	0.42656943
65	0x3f9038d8	1.1267347
66	0xbfeaaa6f	-1.8333262
67	0xc04af5c5	-3.1712506
68	0xbe908e0e	-0.2823338
69	0x3eebbec1	0.4604397
70	0x40295c1e	2.6462474
71	0x3eb81a3f	0.35957524
72	0x3df5856c	0.11988339
73	0xc0407c5c	-3.0075903
74	0xbfd3313d	-1.6499401
75	0xbfb33b2b	-1.4002432
76	0xc02b4cb4	-2.6765566
77	0x40b8285b	5.754926
78	0x400499d1	2.0718882
79	0xc07f5247	-3.9893968
80	0xbfb88a05	-1.441712
81	0xbf96d787	-1.1784524
82	0xc02fd05a	-2.7470918
83	0xc006750e	-2.1008945
84	0x3ef9aacb	0.48763117
85	0x40a522c9	5.160496
86	0xbf84d533	-1.0377563
87	0xc038bf3d	-2.8866723
88	0x400e69b4	2.2252016
89	0xc01a06ca	-2.4066644
90	0xc0b36f68	-5.6073494
91	0xc03a0c98	-2.9070187
92	0xc1166bb8	-9.4012985
93	0x40ddb330	6.9281235
94	0xc06c2885	-3.689973
95	0x3f0d8e15	0.55294925
96	0x3f60a03e	0.8774451
97	0xbff852ae	-1.9400232
98	0xc08bbf42	-4.367097
99	0x41178d57	9.472007
100	0x3d976687	0.073926024
101	0x3fc3c3f4	1.5294175
102	0x3fb948d2	1.4475348
103	0xbf25281b	-0.6451432
104	0x40c5338a	6.1625414
105	0xc0869c15	-4.206553
106	0xc01609f2	-2.344357
107	0x3f050ac1	0.51969534
108	0xbfa7a2bb	-1.3096536
109	0x4021ebfb	2.530028
110	0x3f35ccd1	0.7101565
111	0xbfbb19cf	-1.4617251
112	0xc008c53a	-2.1370378
113	0x402852eb	2.630061
114	0xbe2ba520	-0.16762209
115	0xc080a098	-4.0196037
116	0x3f763a65	0.96182853
117	0x3f21a868	0.6314759
118	0x40607014	3.5068407
119	0x3f4a9c13	0.791444
120	0x40a32614	5.098398
121	0xc05557bd	-3.3334801
122	0xc0bfc517	-5.992809
123	0xbf883725	-1.0641829
124	0xc01fe07b	-2.4980762
125	0x3f065c39	0.5248447
126	0xbfbcd033	-1.4751037
127	0xbe9c55eb	-0.305343
128	0x4030b69f	2.7611463
129	0x3e23f1c8	0.16010201
130	0x406d2db5	3.7059147
131	0xbfbd1a41	-1.4773637
132	0x40206463	2.506127
133	0xbf8b7442	-1.0894854
134	0xc046e56f	-3.1077535
135	0x404bd6b4	3.1849794
136	0x3f88693b	1.0657114
137	0xc1218e9a	-10.097315
138	0xc03a11c4	-2.9073343
139	0xc066be8f	-3.6053808
140	0xc10d522d	-8.832562
141	0x41664100	14.390869
142	0xc0f4901f	-7.642593
143	0xbf0ac558	-0.5420737
144	0x40c90c55	6.2827554
145	0xc0464f64	-3.0985956
146	0xc0bde567	-5.934253
147	0xbf2f5472	-0.6848823
148	0xc0940911	-4.6261067
149	0x3c9a284c	0.018818043
150	0xc03f36b1	-2.987713
151	0x409f248c	4.9732113
152	0x4086bb77	4.210384
153	0xbff08707	-1.8791207
154	0xbff93d8f	-1.9471911
155	0x3f9d5b89	1.2293559
156	0xc1014b28	-8.080849
157	0xbeb252c5	-0.34828773
158	0xc0e1e20b	-7.058843
159	0x3fa60cb4	1.2972627
160	0x40664990	3.59824
161	0xc00caf79	-2.19821
162	0xc0974de8	-4.72826
163	0xbf260ec3	-0.64866275
164	0xc013c7f4	-2.3090792
165	0x3eb87423	0.36026105
166	0xc0800745	-4.0008874
167	0xc0067886	-2.1011062
168	0x4085e302	4.183961
169	0xbf4c364d	-0.79770356
170	0xc079a744	-3.900834
171	0x4017d3b6	2.3722968
172	0x405760b9	3.3652785
173	0x40922c63	4.5679183
174	0xbe029a8e	-0.1275427
175	0xbf2b5942	-0.6693307
176	0x40ddeada	6.9349184
177	0xbf24534d	-0.64189607
178	0xbfa9821f	-1.3242835
179	0xbee9ef51	-0.45690396
180	0xc094b655	-4.6472573
181	0x40164059	2.3476775
182	0xbfc2414b	-1.5176176
183	0x40bc9378	5.8930016
184	0x3ebea7be	0.37237352
185	0xc07ddddf	-3.966667
186	0xc042bbdd	-3.0427163
187	0xbe2bfc7b	-0.16795532
188	0xc075d386	-3.8410354
189	0x4019208c	2.3926115
190	0x40093e27	2.1444185
191	0x40b0275a	5.5048037
192	0x40ce707c	6.451231
193	0xc095d22f	-4.681907
194	0xbdf06779	-0.11738486
195	0xbe4536fd	-0.19259258
196	0xc033444f	-2.8010442
197	0x407bf2b3	3.9366882
198	0x3ed4f196	0.41590565
199	0x3fe66753	1.8000282
200	0x400aacec	2.1668043
201	0xc031be86	-2.7772536
202	0x40a0e81a	5.0283327
203	0xc014729a	-2.3194947
204	0xc170e2d2	-15.055376
205	0x40cde3a0	6.4340363
206	0xc0be40c5	-5.9454064
207	0x3ffa5511	1.955721
208	0x3fb51adf	1.4148825
209	0xc0f540a6	-7.6641417
210	0xbecd82c5	-0.40138832
211	0xbfd4f757	-1.6637982
212	0xc14c1f9d	-12.757718
213	0x41181027	9.503943
214	0xc14c00c5	-12.750188
215	0x411418d7	9.256064
216	0x40ebbedb	7.367048
217	0xc0a6d284	-5.2131977
218	0xc0541cca	-3.3142571
219	0x4013f052	2.311543
220	0xbf9bf4b4	-1.2184052
221	0x3e8bb46d	0.2728609
222	0xc038ee43	-2.8895423
223	0x4006f9d7	2.108999
224	0x40812200	4.0354004
225	0xc0498ef9	-3.1493514
226	0xc0caa696	-6.332835
227	0xc0652c77	-3.580839
228	0xc0dfc3a7	-6.9926333
229	0x40d5c411	6.680184
230	0xbf38def1	-0.7221518
231	0x40ada929	5.4268994
232	0x40d35277	6.6038165
233	0xc099d45a	-4.807172
234	0xc055eaf1	-3.3424647
235	0xc0481bdf	-3.126701
236	0xc0dcc69a	-6.8992434
237	0x40f5eef7	7.6854205
238	0xc04aca8d	-3.1686127
239	0x40a9cdbd	5.3063645
240	0x40e4e19b	7.1525397
241	0xc019ad3c	-2.4011984
242	0xbfed2160	-1.852581
243	0x401c5454	2.442647
244	0xc01aa887	-2.416536
245	0x40525e4d	3.2870057
246	0xc097f0c6	-4.7481413
247	0xbd844501	-0.06458474
248	0x40e39524	7.1119556
249	0xc06e9beb	-3.7282665
250	0xbfaa04a7	-1.328267
251	0xbf4d88d7	-0.80286926
252	0xc0b607ba	-5.688443
253	0x3fd2089a	1.6408875
254	0xbf8845f0	-1.0646343
255	0x40604f77	3.5048501

type_emb.weight f4 [3, 2]
0	0xbfbedcbb	-1.4911112
1	0x407d3b87	3.9567583
2	0x40490852	3.1411328
3	0x3f034219	0.5127273
4	0xc0b66682	-5.700013
5	0x3f27a101	0.6548005

lstm.weight_ih_l0 f4 [256, 22]
0	0x3ea2d17d	0.31800452
1	0x3f73cdc7	0.95235866
2	0x3f1427c3	0.5787317
3	0xbfd5683f	-1.6672438
4	0xc00b86ad	-2.180095
5	0xc10f2b61	-8.948091
6	0x40e92b8c	7.286566
7	0x40bbb662	5.8660135
8	0x4115c3be	9.360289
9	0x3f5e8158	0.8691611
10	0xbfadb6fb	-1.3571466
11	0xbcd8d089	-0.026466625
12	0x401fe0a2	2.4980855
13	0x3fef971e	1.8717992
14	0x3fd52565	1.6652037
15	0x3f63bcf5	0.889602
16	0xbe42fc60	-0.19041586
17	0xbf8cef14	-1.1010461
18	0x40207e03	2.5076911
19	0x4010009a	2.2500367
20	0x400e3fd0	2.2226448
21	0xc10e2a0e	-8.885267
22	0x40c5ca47	6.180942
23	0x3fba0c0b	1.4534925
24	0x3f9f58da	1.244899
25	0xc068cbce	-3.6374393
26	0x3f3e5429	0.7434717
27	0x401db161	2.4639513
28	0x3eb94ebf	0.3619289
29	0x3fa16600	1.2609253
30	0x3f482488	0.7818074
31	0x40a66e91	5.200997
32	0x3f80be59	1.005809
33	0x3fed9194	1.8560052
34	0x3eb653db	0.35610852
35	0x40998fc5	4.7988
36	0xc04400c8	-3.0625477
37	0xc0bfda35	-5.9953866
38	0xbe4da2d0	-0.2008164
39	0x3f0b1b0e	0.5433816
40	0x3e253828	0.16134703
41	0x3ee5d8bc	0.44891918
42	0x3eac4991	0.33649877
43	0xbf8077b0	-1.0036526
44	0xbf8723a0	-1.0557747
45	0xc02914d0	-2.6418953
46	0xbed56585	-0.41679016
47	0xc08961a3	-4.2931685
48	0x4087666b	4.231252
49	0x3fa7b27d	1.3101345
50	0xc0d0ea41	-6.5285954
51	0xc04a3f94	-3.1601305
52	0x4100a685	8.040654
53	0xbf136cdf	-0.57588
54	0x408ea735	4.457911
55	0x409bba2a	4.866475
56	0x3f8bda45	1.0925986
57	0x3f39ac08	0.72528124
58	0x4066e600	3.607788
59	0x3ca8da24	0.02061183
60	0xbe4c3ad2	-0.19944313
61	0x3f001e2f	0.50046057
62	0xbf72da90	-0.9486475
63	0xbf809b7c	-1.004745
64	0xbf7a7292	-0.9783107
65	0x3f86d459	1.0533553
66	0xbfee13e6	-1.8599823
67	0x3f979389	1.1841899
68	0xc0a9ae46	-5.3025236
69	0xbdcea94a	-0.10090883
70	0x3fc1e32e	1.5147455
71	0xc0806165	-4.011889
72	0x4101f860	8.123138
73	0x404c0a00	3.1881104
74	0xbfd3884d	-1.6525971
75	0xbfb8cec3	-1.4438099
76	0x3ffd9d75	1.9813677
77	0x3f0ee78a	0.5582205
78	0xc0edb25f	-7.428024
79	0xbfe60407	-1.7969979
80	0x41049e4b	8.288646
81	0x3fe5468c	1.7912154
82	0x3fa65c13	1.2996849
83	0x40528295	3.28922
84	0xbf8d2051	-1.1025487
85	0xbf69cb90	-0.91326237
86	0xbf63c078	-0.8896556
87	0xbec2e8eb	-0.38068327
88	0x3dfaa197	0.12237852
89	0xc03d34fd	-2.9563591
90	0xc032b599	-2.7923338
91	0x3f6a45e0	0.9151287
92	0xbfe5a154	-1.7939858
93	0xc06b9c92	-3.6814313
94	0xc0cd7ff6	-6.42187
95	0x405fc8d3	3.4966323
96	0x4017d5b8	2.3724194
97	0xbf84b2c4	-1.0367055
98	0x3fed977d	1.8561856
99	0x40e1cf1d	7.0565324
100	0xc0c4119c	-6.1271496
101	0x3fc51b3c	1.5398936
102	0x3fbf6438	1.4952459
103	0x40a3076d	5.0946565
104	0xc051790c	-3.273013
105	0xbf8c887c	-1.0979152
106	0xbe51a42a	-0.2047278
107	0xbd941b45	-0.07231764
108	0xbd519443	-0.051166784
109	0x3f1d0456	0.6133474
110	0xc01a3f0f	-2.4100988
111	0x3fcf1f43	1.6181415
112	0xc04bab28	-3.1823215
113	0xbfbe63c4	-1.4874196
114	0xc0329103	-2.7901008
115	0x3e86eb37	0.2635133
116	0xc055a6cf	-3.3383062
117	0xbfaaa0e9	-1.3330356
118	0x40aff482	5.498597
119	0xbf2d8452	-0.6778003
120	0x3fe8d019	1.8188506
121	0xbfccd721	-1.6003152
122	0x3e863728	0.26213956
123	0x3f3bb777	0.7332682
124	0x3f8280e9	1.019559
125	0x40a6f781	5.217713
126	0x3f727902	0.94715893
127	0x4000a5ff	2.0101316
128	0x40f778eb	7.7335105
129	0x40d678ae	6.7022314
130	0x40ce8e41	6.454865
131	0x417e975a	15.911951
132	0x3f46be4f	0.7763414
133	0x3f963107	1.1733712
134	0x400f3700	2.237732
135	0xbf479826	-0.77966535
136	0x3f92d0d8	1.1469984
137	0x3e5f319a	0.21796265
138	0x3fc3fcd8	1.5311537
139	0x40253f8a	2.582003
140	0xbf0e26e8	-0.55528116
141	0xbe9bb7a3	-0.3041354
142	0xc013e6d7	-2.3109643
143	0xc0112abe	-2.2682338
144	0x3ff1dcba	1.8895485
145	0x405d4801	3.4575198
146	0x3ffdd22a	1.9829762
147	0x4111d1c9	9.113717
148	0x3f0272ef	0.50956625
149	0xc052684b	-3.2876155
150	0xc0d93b7d	-6.7885118
151	0xc0741325	-3.8136685
152	0xc07323eb	-3.7990673
153	0xc1ca9e62	-25.327335
154	0x40287011	2.63184
155	0xc01cb38c	-2.4484587
156	0x403d6a11	2.9595988
157	0x3e7f95bf	0.24959467
158	0x410304f9	8.188714
159	0xbe996dc5	-0.2996656
160	0xc02aaea8	-2.6669102
161	0x3f07935e	0.5295924
162	0xc0bda9f0	-5.9269943
163	0x4065f1a5	3.5928738
164	0xbfdad502	-1.7096255
165	0x3f892d1c	1.0716891
166	0xc097d868	-4.745167
167	0xbf1b5ef0	-0.6069174
168	0x3fc93e32	1.5722106
169	0x40308f92	2.7587628
170	0x400523ce	2.0803103
171	0x402b9662	2.6810536
172	0x3dc93ccc	0.09826049
173	0xbe73371c	-0.23751491
174	0xbe85d0fe	-0.2613601
175	0xc08119f9	-4.0344205
176	0xc098ced7	-4.775249
177	0xbff20c29	-1.8909961
178	0xc014f395	-2.327367
179	0x40108573	2.258145
180	0xc036cae0	-2.8561325
181	0x401d62cd	2.4591553
182	0xbf322527	-0.6958794
183	0x40db1867	6.846729
184	0x400cd5d5	2.2005513
185	0xc0198ffc	-2.399413
186	0x3e3cdf9e	0.18444678
187	0xbf58a927	-0.84633106
188	0xc062afb8	-3.541975
189	0x4046f3e3	3.1086357
190	0xbf863e66	-1.0487792
191	0xc03331de	-2.7999187
192	0x3fe8e261	1.8194085
193	0x3fa30644	1.2736287
194	0xbf5eb3f8	-0.8699336
195	0xbf86c4ae	-1.0528772
196	0xbf592fb6	-0.84838426
197	0xc11ec314	-9.9226265
198	0xc071bde3	-3.7772148
199	0x3fd75821	1.682377
200	0xbe94d108	-0.29065728
201	0x400ea34a	2.2287164
202	0xbf992aad	-1.1966149
203	0x40a1f578	5.0612144
204	0x4046d05f	3.106468
205	0xbfec1434	-1.8443666
206	0x40750fdd	3.8290932
207	0x402ae864	2.670434
208	0xbff864c8	-1.9405756
209	0x3f9851e2	1.1899989
210	0xc0cc1002	-6.376954
211	0x403c5651	2.9427683
212	0x40b7a0ad	5.7383637
213	0xbfa3d44e	-1.2799165
214	0x3f9cb9e3	1.2244228
215	0x3efabfdb	0.489745
216	0xbf5451fe	-0.8293761
217	0xbe4edd16	-0.20201525
218	0xbebd9361	-0.37026504
219	0xc0fbafba	-7.865201
220	0x4017aba8	2.369852
221	0xbe808ce4	-0.2510749
222	0xbf0a9a96	-0.5414213
223	0x40277700	2.6166382
224	0xbea1de07	-0.31614706
225	0xbf0588d8	-0.5216193
226	0xc0bfb07e	-5.9902945
227	0xbf81f7bb	-1.0153726
228	0x3fb6be21	1.4276773
229	0x40292c78	2.6433392
230	0xbdb08cee	-0.0862063
231	0xc087e563	-4.2467513
232	0xc0b4280d	-5.629889
233	0x3fd534f9	1.6656791
234	0x407879bf	3.8824308
235	0x4029336a	2.643763
236	0x40912f2b	4.537008
237	0x40992a5b	4.7864203
238	0xc08b18ea	-4.3467913
239	0xc08dea3e	-4.434844
240	0xc08fcd14	-4.493784
241	0xc0649ebe	-3.5721889
242	0xc0b729e9	-5.723866
243	0xbf0f7cb6	-0.5604967
244	0xbfca089b	-1.5783876
245	0x3f2aa622	0.6665975
246	0xbc8ac968	-0.016941741
247	0x40a9565a	5.291791
248	0x3fc160d5	1.5107676
249	0xbfbf69fa	-1.4954216
250	0x3ed8a617	0.42314216
251	0x3e6dcf3e	0.23223588
252	0x3fd78f4e	1.6840608
253	0xc04f5310	-3.2394447
254	0x3fbf6f23	1.4955791
255	0x3f9ea896	1.2395198

lstm.weight_hh_l0 f4 [256, 64]
0	0xc0c0bd01	-6.023072
1	0x4039fa3a	2.9058976
2	0xc08136fd	-4.0379624
3	0xc06b1d9b	-3.673682
4	0x4033dcfb	2.8103626
5	0xbd6c3505	-0.05766775
6	0x3fb7a601	1.4347535
7	0xc04dd076	-3.2158484
8	0x3e8e34c8	0.27774644
9	0x3dd19589	0.102336
10	0xbff5d826	-1.9206588
11	0xc04a7bf7	-3.1638162
12	0x400ed904	2.2319956
13	0xc03c8b72	-2.946011
14	0xc08c1210	-4.377205
15	0x3f86d5bf	1.053398
16	0xc0221821	-2.5327227
17	0x406aa08b	3.6660488
18	0x3fd60b78	1.672225
19	0xbdef9c83	-0.11699774
20	0x4029e34d	2.6544983
21	0xbfc08521	-1.5040628
22	0x40603909	3.5034811
23	0x40209834	2.5092897
24	0x3dec69c9	0.115436144
25	0x40a1747c	5.0454693
26	0xc03c195e	-2.9390483
27	0x3f9404d4	1.1563973
28	0xc067add6	-3.619985
29	0xbf62e3e4	-0.88628983
30	0x408e234d	4.441809
31	0xc0263d1e	-2.5974803
32	0xc1146377	-9.274283
33	0xbf839f20	-1.0282936
34	0xc080d7f6	-4.0263624
35	0xc06f723e	-3.7413478
36	0xc000f189	-2.0147421
37	0xbf8d36f9	-1.1032401
38	0xbfba420c	-1.4551406
39	0x40946508	4.637333
40	0x40a1e5c5	5.059298
41	0x405031b6	3.253034
42	0xbfdbf67f	-1.71846
43	0xc02fb149	-2.7451956
44	0x4027c6d0	2.6215096
45	0x4088ab1a	4.2708864
46	0x405e2df3	3.4715545
47	0xc088f8ca	-4.2803698
48	0xc06dd835	-3.7163212
49	0x3ffbb24d	1.9663788
50	0x40268277	2.601713
51	0x3decdefc	0.115659684
52	0xc048ef27	-3.1395967
53	0x41199687	9.59925
54	0x3ffd31d6	1.9780834
55	0x3ec3b4fe	0.38224024
56	0x3febec6d	1.8431526
57	0x40474682	3.1136785
58	0xc0778f47	-3.86812
59	0x3fd5d2d5	1.6704966
60	0x3fbd799d	1.4802738
61	0xbf1dce9c	-0.61643386
62	0x40ae1146	5.4396086
63	0x4007fafc	2.1246939
64	0xbf8af9a9	-1.085744
65	0x408d3615	4.412852
66	0x3fec2473	1.8448623
67	0xc05dd29e	-3.46598
68	0xc00e8ea6	-2.2274566
69	0xbd9a8f62	-0.07546879
70	0xbffcd154	-1.9751382
71	0xc0b7e061	-5.74614
72	0x40c1483d	6.040068
73	0x4082b785	4.0849023
74	0x3f9e4a96	1.2366512
75	0xc10a0bdf	-8.627898
76	0x401679fb	2.351195
77	0x40bdc2aa	5.9300127
78	0x3f4834a4	0.78205323
79	0xc0253365	-2.5812619
80	0xc105660b	-8.337413
81	0x4110d924	9.053013
82	0x3e2ff6e1	0.1718402
83	0x40958c83	4.6734023
84	0x3df21bdf	0.11821722
85	0x40afd8e4	5.495226
86	0xbfd24142	-1.6426165
87	0xbdb42b51	-0.087973244
88	0xc0d17a14	-6.546152
89	0x4000485a	2.004416
90	0x3f2871ca	0.6579863
91	0xc088f831	-4.280297
92	0x40837a9e	4.108718
93	0x404453ee	3.0676227
94	0x407b6d3f	3.9285429
95	0xc07343be	-3.8010097
96	0xbf05b3fc	-0.5222776
97	0x4022b9f1	2.542599
98	0x3fe0971e	1.7546117
99	0xc004d9aa	-2.0757852
100	0xc0dc1eb4	-6.878748
101	0xc0791fd2	-3.8925672
102	0xbed1d189	-0.40980175
103	0xbef911fd	-0.48646536
104	0xc1104aa4	-9.018223
105	0x40bc41de	5.8830404
106	0x40d2b762	6.5848856
107	0xc0e59ad9	-7.1751523
108	0xc02d32d3	-2.706227
109	0x402231bf	2.5342863
110	0x409029f9	4.5051236
111	0x40fb78a0	7.8584747
112	0xbf659072	-0.8967353
113	0x40983a19	4.757092
114	0x409f4a40	4.9778137
115	0xbf8f6ca7	-1.1205033
116	0xc0960ddf	-4.6891932
117	0x3f7ac6fc	0.97959876
118	0x400b415c	2.1758642
119	0x3da4d19d	0.08047793
120	0x40d8ef8c	6.7792416
121	0xbf4e308e	-0.8054284
122	0xbfaade05	-1.3349005
123	0xbf8d939a	-1.106067
124	0xc07f5319	-3.9894469
125	0x40bc84e2	5.891221
126	0x3fc5e4a8	1.5460405
127	0xbf9d56f1	-1.2292157
128	0x3e8fe8fe	0.28107446
129	0x3f91c90e	1.1389482
130	0xc0164d6d	-2.3484757
131	0xbf18e0a6	-0.59717786
132	0x3f85fac8	1.0467157
133	0x4011cd89	2.2781699
134	0x3fd4f0d1	1.6635991
135	0xc076a5ce	-3.85387
136	0xbfd46e70	-1.6596203
137	0x40e1cf34	7.0565434
138	0x3f1502dc	0.5820749
139	0xc094baf3	-4.647821
140	0x408e9198	4.4552727
141	0xbf7c3bd7	-0.9852881
142	0x3fe39892	1.7780936
143	0xbdfc8815	-0.12330643
144	0x3fa6d6e0	1.3034325
145	0x3fa1c9a6	1.2639663
146	0x406d75d4	3.7103167
147	0x3f7e7190	0.9939203
148	0x403f3235	2.9874394
149	0xc04c1121	-3.1885455
150	0xc08db083	-4.427797
151	0x405e5414	3.4738817
152	0xbf912616	-1.1339748
153	0xc02c7576	-2.6946692
154	0x3d66a9c8	0.05631426
155	0x3f37928d	0.71707994
156	0x401e9ec2	2.4784398
157	0xbf908b74	-1.1292558
158	0xc0c49595	-6.1432595
159	0xc08094a3	-4.018144
160	0xbea3eb2b	-0.32015356
161	0x3d7edd32	0.062222667
162	0xc0206f48	-2.506792
163	0x3f7083c3	0.9395105
164	0x40e0957c	7.0182476
165	0x401f2d4b	2.4871395
166	0x3ef38790	0.47564363
167	0x3eaeefa9	0.3416722
168	0x4074f254	3.8272905
169	0x40a22f86	5.068301
170	0xc008df94	-2.1386461
171	0x400096fb	2.009215
172	0xbfab2f89	-1.3373882
173	0x4010fda7	2.2654817
174	0xbff2ccfe	-1.8968809
175	0x3f5c186e	0.85974777
176	0xc0814530	-4.0396957
177	0xbf818fdd	-1.0122029
178	0x3fc8f375	1.5699297
179	0xc0ab21fd	-5.347899
180	0xc072271e	-3.7836375
181	0x3f688518	0.90828085
182	0x4002f42d	2.0461533
183	0xc055e4fb	-3.3421009
184	0x3df90ede	0.12161039
185	0xc0a280dc	-5.07823
186	0xc0f912ed	-7.7835603
187	0x4006d843	2.1069496
188	0xbf99fe4e	-1.2030733
189	0xbfeada72	-1.8347914
190	0x3f833e94	1.0253472
191	0xbff6fd1f	-1.9295996
192	0xc0530733	-3.2973144
193	0x3ffc0cfa	1.969146
194	0xbe4a971b	-0.19784205
195	0x3f62d379	0.8860393
196	0xc0a1893a	-5.0480013
197	0xc090bc78	-4.5230064
198	0xc03e3f88	-2.9726276
199	0x3fdbb5bc	1.7164836
200	0x401beca0	2.4363174
201	0x400446f2	2.0668302
202	0xc04375b7	-3.0540597
203	0x40638631	3.5550654
204	0x4093474c	4.602453
205	0x3fa7803d	1.308601
206	0xc097a589	-4.738957
207	0xc0130feb	-2.2978466
208	0x3fdf7c70	1.745985
209	0xbfc145c7	-1.5099419
210	0x3f9ff855	1.249766
211	0x40a20840	5.063507
212	0xbe353ee7	-0.17699777
213	0x40b4f522	5.6549234
214	0xc061efea	-3.5302682
215	0xc0912209	-4.5354047
216	0x4001c516	2.0276542
217	0x403ec3fd	2.9807122
218	0x3fba232d	1.4541985
219	0x408f1496	4.471263
220	0xbf327388	-0.69707537
221	0xc02277cb	-2.5385616
222	0x3fccb8e5	1.5993925
223	0xc0883cea	-4.257436
224	0xc069b25a	-3.6515107
225	0x40538908	3.3052387
226	0x3fe5fe01	1.7968141
227	0xc0cab8d0	-6.33506
228	0xbe7b0330	-0.24512935
229	0xc09b2924	-4.848772
230	0xc05dd66d	-3.4662125
231	0xc09d972b	-4.924703
232	0xc039baee	-2.9020343
233	0x3f09bcd7	0.5380377
234	0xbf7f91a4	-0.99831605
235	0xc09ea30b	-4.9574027
236	0x3e223c7d	0.15843387
237	0x409747dd	4.7275224
238	0x400b033f	2.1720731
239	0x40880435	4.2505136
240	0x400e3b97	2.222387
241	0xbf02607f	-0.5092849
242	0xbe2e1cb9	-0.17003144
243	0x3fa49a0c	1.2859511
244	0xbfad3006	-1.353028
245	0x40f46dbc	7.6383953
246	0x4095c99d	4.680861
247	0x40b5ac17	5.677257
248	0x404a93ba	3.1652665
249	0x3f692851	0.9107714
250	0x406aaef9	3.6669295
251	0xbfdc2e94	-1.7201715
252	0x40275c09	2.6149924
253	0xc0be5717	-5.948131
254	0x410ba77e	8.728392
255	0xc09a7f62	-4.8280497

lstm.bias_ih_l0 f4 [256]
0	0x4026d6fe	2.606872
1	0x40c3197c	6.096861
2	0x3f4f0ad6	0.8087591
3	0xc070b597	-3.7610834
4	0x3eb49697	0.3527114
5	0xbdbd5dd0	-0.09246409
6	0x409d80fe	4.921996
7	0xbf1d87e5	-0.61535484
8	0x40a05758	5.010662
9	0x3fe8ac63	1.8177608
10	0xbfb2e878	-1.3977194
11	0x40201979	2.5015547
12	0x388f5d72	6.836177e-05
13	0xc036a67a	-2.853911
14	0xc0995862	-4.792039
15	0xc06605b4	-3.594098
16	0x40989bf3	4.769037
17	0x3f3fc9e1	0.7491742
18	0x404e0972	3.2193265
19	0xc0691d54	-3.642415
20	0x40e0faaa	7.0305986
21	0x40b5a021	5.675797
22	0xbe7f8d30	-0.24956203
23	0x3fe651cd	1.7993714
24	0x3f2187c8	0.6309781
25	0xbff21596	-1.8912838
26	0x4095814b	4.672033
27	0xbeef4cff	-0.4673843
28	0x40005acb	2.0055416
29	0xc09299e9	-4.581288
30	0xbf6da7ab	-0.92833966
31	0xbf088eab	-0.53342694
32	0xbe768617	-0.24074589
33	0xc0395a77	-2.8961465
34	0xc01b886b	-2.4302013
35	0xbff97c24	-1.949101
36	0xc027b72b	-2.6205547
37	0x40a507d1	5.157204
38	0x4068e152	3.6387525
39	0xbdb50fb4	-0.08840886
40	0x3f1ab77f	0.6043624
41	0x406ca685	3.6976635
42	0x3fcdb24d	1.6070038
43	0x40dc81e4	6.890856
44	0xc018427d	-2.3790581
45	0x3efa4a21	0.4888468
46	0xc0493cd4	-3.1443377
47	0x3e71082b	0.23538272
48	0xbeb37f34	-0.35057986
49	0x405b85d0	3.4300423
50	0x407682f0	3.8517418
51	0x40d1d86f	6.55767
52	0xbe58ccd6	-0.21171889
53	0x3fba9edc	1.457973
54	0x3f7cfef9	0.9882656
55	0x3fd980b3	1.6992401
56	0x40843033	4.1308837
57	0xc0ac4340	-5.383209
58	0x408f4e0c	4.478277
59	0x401e326d	2.4718277
60	0xbfd4881c	-1.6604037
61	0xbed99a7f	-0.42500684
62	0xc01f94b5	-2.4934514
63	0xc041a4aa	-3.0256753
64	0xbe7ed089	-0.24884237
65	0x3f2bb979	0.67079884
66	0xbcc6d69d	-0.024272257
67	0xc07289e7	-3.789667
68	0xbf190405	-0.5977176
69	0x3ff8e196	1.9443843
70	0x4038c73c	2.8871603
71	0x3e94eb6e	0.2908587
72	0x3fdc27eb	1.7199682
73	0x3e2470cd	0.16058655
74	0x3f92c1d1	1.1465398
75	0x3fc79fdd	1.5595661
76	0xbcc3f616	-0.023921054
77	0x40153698	2.3314571
78	0x3e419ec0	0.18908215
79	0xc0a5923b	-5.1741004
80	0x408b5d28	4.3551216
81	0xbf001b87	-0.50042003
82	0xc041032f	-3.0158193
83	0xbfc857f5	-1.5651842
84	0xc08fbb6a	-4.4916277
85	0x3f8b13b9	1.0865394
86	0x3e9775e0	0.2958212
87	0x3f8c1d85	1.0946509
88	0x3fe1e4ca	1.7647946
89	0x40d59551	6.674477
90	0x3fff2859	1.9934188
91	0xbecbcc6b	-0.39804396
92	0xc037d85d	-2.8725808
93	0x40621157	3.5323083
94	0xbf5c8489	-0.8613973
95	0x40b1f951	5.561684
96	0xbf2d99ac	-0.6781261
97	0xc0133668	-2.3001957
98	0xc005a3df	-2.088127
99	0x3eed9371	0.4640155
100	0x3fce7e6d	1.6132332
101	0xc01bfb49	-2.4372122
102	0x3f43ed7a	0.76534235
103	0x40033b71	2.050503
104	0xc0a0172c	-5.0028286
105	0x40126870	2.2876244
106	0x408826f8	4.254757
107	0x3f8b3809	1.0876476
108	0x3fdfa3d2	1.7471869
109	0x4004c631	2.0745966
110	0xbe7ea974	-0.24869329
111	0x3f2d4a35	0.67691356
112	0xbfbc7142	-1.4722064
113	0xbfe617de	-1.7976034
114	0xbee86769	-0.45391396
115	0xbd6aa2a9	-0.05728403
116	0x400dfe62	2.2186513
117	0x3ec3778d	0.38177148
118	0xc00963e1	-2.1467211
119	0xbfe2874f	-1.7697543
120	0xbfd2af68	-1.645978
121	0xc07ba7a1	-3.9321063
122	0x3fc53c59	1.5409042
123	0x400a541a	2.1613832
124	0x403d95b5	2.9622624
125	0xc09e5c52	-4.9487696
126	0x4019b153	2.401448
127	0xbfc8fb6a	-1.5701725
128	0xbfad16d9	-1.3522598
129	0x40d16667	6.5437503
130	0xc0451a26	-3.079721
131	0xbdd67945	-0.10472349
132	0xbf961061	-1.1723748
133	0x401f5799	2.4897215
134	0x40edca78	7.4309654
135	0x3dcc3e27	0.09972792
136	0x411a7266	9.652929
137	0x405ede9c	3.482337
138	0x3f50ebf5	0.8161004
139	0xc0947ca8	-4.640217
140	0xbfcc80ec	-1.5976844
141	0x3ea874c9	0.329016
142	0xbfb13415	-1.3844019
143	0x3fa85523	1.3150982
144	0xc08da76a	-4.4266863
145	0x41009e43	8.038638
146	0x3f052272	0.52005684
147	0x4093a84a	4.614293
148	0x3e6f336a	0.23359457
149	0x40747155	3.8194172
150	0xc03641ce	-2.8477664
151	0x40c85dda	6.2614565
152	0xc100b445	-8.044011
153	0x4065f8bd	3.5933068
154	0xbf140b2c	-0.57829547
155	0xc10018c3	-8.006045
156	0x40f16ab7	7.5442767
157	0xc00f3816	-2.2377982
158	0xbf7220c4	-0.94581246
159	0xc09fbabd	-4.991545
160	0xc042316b	-3.0342662
161	0xbf3900e6	-0.72266996
162	0x3e6b7041	0.2299204
163	0xbf6c457e	-0.92293537
164	0x3def51c1	0.11685515
165	0xbfb50fec	-1.4145484
166	0x3fd55290	1.6665821
167	0x400ddf16	2.216741
168	0xc0c3373b	-6.100492
169	0x40bee6a6	5.9656553
170	0x40cb06df	6.3445888
171	0xc02d397b	-2.7066333
172	0xbfe4bd07	-1.7870187
173	0xbfc2f4d9	-1.5230972
174	0x405f8f7e	3.493133
175	0x3fa756fb	1.3073419
176	0xbf792981	-0.97328955
177	0xc03d946d	-2.9621842
178	0x403fc9ff	2.9967039
179	0xc01ea5a8	-2.4788609
180	0xc0d49f2e	-6.644431
181	0x3f491d5e	0.78560436
182	0xbff944f0	-1.9474163
183	0xc0186f69	-2.3818
184	0x40c5743c	6.170439
185	0x3fe3308b	1.7749189
186	0xc045e03b	-3.091811
187	0x40a3bc7f	5.11676
188	0xc0508a20	-3.2584305
189	0xbe5c27d2	-0.21499565
190	0x40aafb5b	5.343183
191	0xc030992b	-2.7593486
192	0x40b757bb	5.7294593
193	0x40a859d5	5.260966
194	0xc012603d	-2.287124
195	0xc074753f	-3.8196561
196	0x3fa5d24f	1.2954806
197	0xbfbe5734	-1.4870362
198	0xc0ab1802	-5.3466806
199	0xbf9d1695	-1.2272516
200	0x4006e5ef	2.107784
201	0xbea67e49	-0.32518223
202	0x40769d42	3.8533483
203	0x40893c9c	4.2886486
204	0x405a293b	3.4087665
205	0x40564737	3.3480966
206	0xbfe22b3a	-1.7669442
207	0x407ff809	3.9995139
208	0x3fb7d6c5	1.4362417
209	0x408ca3fe	4.3950186
210	0x3f62a10c	0.8852699
211	0x4044c4d8	3.0745144
212	0x4085a59f	4.1764674
213	0xc04804fa	-3.1253037
214	0xc056ff66	-3.3593383
215	0x40e068a1	7.012772
216	0x40e937e6	7.2880735
217	0x3cdcd2e7	0.026956035
218	0xc00c0818	-2.187994
219	0x4039a352	2.9005933
220	0x406c67ff	3.6938474
221	0x3f5b3e6e	0.85642135
222	0x3fda38bb	1.7048563
223	0x3ff54b84	1.916367
224	0x40707c35	3.757581
225	0xc0613d9b	-3.519385
226	0xc0738d8a	-3.8055139
227	0xc0afcdba	-5.493863
228	0x401f000d	2.484378
229	0x3f61b2af	0.88163275
230	0x411edf3b	9.9295
231	0xbdd9c160	-0.106325865
232	0x4004af26	2.0731902
233	0x40558514	3.3362474
234	0x40189aae	2.384441
235	0xbf05e4ce	-0.52302253
236	0xc0491217	-3.141729
237	0xbf65f5fc	-0.8982847
238	0x3f5b4a7a	0.8566052
239	0xc02c8505	-2.6956189
240	0xbd93b218	-0.07211703
241	0xbd3d4f90	-0.046218455
242	0xbf339091	-0.70142466
243	0x40689778	3.634245
244	0x407894f6	3.8840919
245	0x40096d8a	2.1473107
246	0x3fcf85d3	1.6212715
247	0xbff5686f	-1.9172496
248	0x3fcecb23	1.6155742
249	0xc00eb703	-2.2299201
250	0x408087f5	4.0165963
251	0x40b5d1f3	5.6818786
252	0x3e7ec3cc	0.24879378
253	0x4097f7eb	4.7490134
254	0xc02dffa1	-2.7187274
255	0xc01f3efe	-2.4882197

lstm.bias_hh_l0 f4 [256]
0	0x4026a145	2.603593
1	0x40c1a5b8	6.0514793
2	0x3f3a1c95	0.7269986
3	0xc072c28c	-3.7931242
4	0x3e9966b4	0.2996117
5	0xbc0d93ac	-0.008641165
6	0x409a87e2	4.8290873
7	0xbf11c135	-0.56935436
8	0x40a6c7e7	5.211902
9	0x3fe662f7	1.7998952
10	0xbfc1bfb3	-1.5136627
11	0x402100dd	2.5156777
12	0xbdd266f6	-0.102735445
13	0xc03a3924	-2.9097376
14	0xc098ff80	-4.781189
15	0xc06f2bdb	-3.7370517
16	0x409f0132	4.968896
17	0x3f49f10d	0.7888344
18	0x404a42b6	3.1603217
19	0xc06d02c2	-3.7032933
20	0x40e32336	7.098048
21	0x40b55172	5.666192
22	0xbe79cbd0	-0.24394155
23	0x3fdd2286	1.7276161
24	0x3f14d7df	0.58141893
25	0xbfef042f	-1.8673152
26	0x4093dc75	4.6206613
27	0xbf12cee6	-0.5734695
28	0x3ffd5f65	1.9794737
29	0xc0914579	-4.5397305
30	0xbf4e66fe	-0.80625904
31	0xbf0044db	-0.50105065
32	0xbd8b4b91	-0.068015225
33	0xc0464c80	-3.0984192
34	0xc0267e84	-2.601472
35	0xc0032513	-2.0491378
36	0xc0270f0b	-2.6102931
37	0x40a4e30d	5.152716
38	0x406090c9	3.508837
39	0xbdecda13	-0.11565032
40	0x3f162f1b	0.5866563
41	0x406ffc40	3.749771
42	0x3fc0b653	1.5055641
43	0x40e0a9db	7.0207343
44	0xc0177359	-2.3664153
45	0x3f28335b	0.6570336
46	0xc05122d5	-3.267751
47	0x3eb80c7b	0.35947022
48	0xbecb5129	-0.39710358
49	0x405e9a38	3.4781628
50	0x40734fb3	3.8017395
51	0x40d16c22	6.54445
52	0xbde1e7a0	-0.11030507
53	0x3fad715e	1.3550222
54	0x3f806c6b	1.0033087
55	0x3fd16669	1.6359378
56	0x408417e8	4.1279182
57	0xc0b14231	-5.53933
58	0x40962d00	4.692993
59	0x4020264b	2.5023372
60	0xbfeb9dbc	-1.8407512
61	0xbf11ca4f	-0.56949323
62	0xc01bb3c4	-2.432847
63	0xc0478a4c	-3.117816
64	0xbd68e3d4	-0.0568579
65	0x3ef2c62d	0.4741682
66	0x3d92bb92	0.071646824
67	0xc06c1db9	-3.6893141
68	0xbf168e4e	-0.5881089
69	0x4004da82	2.0758367
70	0x403ce508	2.951479
71	0x3ed77302	0.42079931
72	0x3fc97714	1.5739465
73	0x3dae7c02	0.08519746
74	0x3f8df899	1.1091491
75	0x3fbb0ffc	1.4614253
76	0xbe003956	-0.12521872
77	0x400a2ed6	2.1591086
78	0x3e377967	0.17917405
79	0xc0a47125	-5.1388116
80	0x40877f11	4.234261
81	0xbf14a1ed	-0.5805958
82	0xc0379daa	-2.868998
83	0xbfdc5670	-1.7213879
84	0xc09513ff	-4.658691
85	0x3f8eeee1	1.116665
86	0x3e570040	0.20996189
87	0x3f963065	1.1733519
88	0x3ff26fbd	1.894035
89	0x40d64b60	6.696701
90	0x400cbe4b	2.1991146
91	0xbef15961	-0.47138503
92	0xc0338a45	-2.8053143
93	0x40667434	3.6008425
94	0xbf7439a6	-0.95400465
95	0x40b02924	5.505022
96	0xbf4d4aad	-0.8019207
97	0xc011a444	-2.275651
98	0xc0065ad9	-2.099295
99	0x3ed22658	0.4104488
100	0x3fcf958b	1.6217512
101	0xc022a6ea	-2.5414376
102	0x3f4160c0	0.75538254
103	0x3ffbe78a	1.9680035
104	0xc0a0fe25	-5.0310235
105	0x400dfc73	2.2185333
106	0x4085ec02	4.1850595
107	0x3f869613	1.0514549
108	0x3fe9d2f8	1.8267508
109	0x400d4b5c	2.2077246
110	0xbdf25c16	-0.1183397
111	0x3f091f7a	0.53563654
112	0xbfc2a4cb	-1.5206541
113	0xbfe256b5	-1.7682711
114	0xbf257f68	-0.6464753
115	0xbd1d29af	-0.03836983
116	0x4004fc2d	2.0778916
117	0x3f0bd64a	0.54623854
118	0xc00d0271	-2.203274
119	0xbff0dedf	-1.8818015
120	0xbfc25a7f	-1.5183867
121	0xc082686c	-4.075247
122	0x3fc46986	1.5344703
123	0x4009f45c	2.1555395
124	0x403216e9	2.7826483
125	0xc09bf4b7	-4.8736224
126	0x40185784	2.3803415
127	0xbfc76005	-1.5576178
128	0xbfaa5e87	-1.3310097
129	0x40d34bd1	6.603005
130	0xc0442cb4	-3.0652285
131	0xbe60dd6a	-0.21959463
132	0xbf8f2966	-1.1184509
133	0x40247c2c	2.5700788
134	0x40ef60bd	7.480559
135	0x3e2a14d7	0.16609512
136	0x4119452e	9.57939
137	0x405c9378	3.4465008
138	0x3f62cc4d	0.8859299
139	0xc094e837	-4.6533465
140	0xbfcc35aa	-1.5953877
141	0x3eb735b5	0.35783163
142	0xbfb8c230	-1.4434261
143	0x3f9277ee	1.144285
144	0xc08c04c4	-4.3755817
145	0x41025ff9	8.148431
146	0x3ece724d	0.4032158
147	0x409a06d1	4.813332
148	0x3eb832e1	0.35976318
149	0x407c6fad	3.9443161
150	0xc043bd80	-3.0584412
151	0x40cc4a65	6.3840814
152	0xc1004fb1	-8.019456
153	0x4066b5c2	3.6048436
154	0xbecacba5	-0.39608493
155	0xc0f97265	-7.795214
156	0x40f56e8b	7.669744
157	0xc0107689	-2.2572348
158	0xbf47fe7d	-0.78122693
159	0xc09bfc50	-4.87455
160	0xc04982b4	-3.1486025
161	0xbf1109fa	-0.5665585
162	0x3e6a94cf	0.22908328
163	0xbf8872f4	-1.0660081
164	0x3e5981de	0.21240947
165	0xbfc564ea	-1.5421422
166	0x3fce89de	1.6135824
167	0x401397a5	2.3061306
168	0xc0c26724	-6.0750904
169	0x40beca11	5.9621663
170	0x40c9a441	6.3013005
171	0xc030d49d	-2.762977
172	0xbff8bde4	-1.943295
173	0xbfc92fe8	-1.5717745
174	0x40653d1c	3.5818548
175	0x3f9d0276	1.2266376
176	0xbf8031bb	-1.0015177
177	0xc03f5cb3	-2.990033
178	0x403e8ba7	2.9772737
179	0xc020ea81	-2.514313
180	0xc0d23d3e	-6.569976
181	0x3f1e1eed	0.6176594
182	0xbff24638	-1.8927679
183	0xc01a9e2f	-2.4159048
184	0x40c04849	6.008824
185	0x3fcad33b	1.5845712
186	0xc03df59c	-2.9681158
187	0x40a7f787	5.2489657
188	0xc0591de5	-3.3924496
189	0xbe93a510	-0.2883687
190	0x40b1383f	5.538116
191	0xc0339353	-2.805867
192	0x40b76172	5.730645
193	0x40ad3da4	5.4137745
194	0xc01396b4	-2.3060732
195	0xc073e4d2	-3.810841
196	0x3fa49ba4	1.2859998
197	0xbfc41bdf	-1.5321006
198	0xc0af4832	-5.477563
199	0xbfaa1894	-1.3288751
200	0x401422e2	2.314629
201	0xbe2088aa	-0.15677133
202	0x408221ca	4.0666246
203	0x40851ae5	4.159533
204	0x40638205	3.5548108
205	0x40539f37	3.3065927
206	0xbfee9724	-1.8639874
207	0x407742f2	3.863461
208	0x3fbcdeff	1.4755553
209	0x409250d8	4.5723686
210	0x3f2f4d85	0.6847766
211	0x4049a8c3	3.1509254
212	0x40837939	4.1085477
213	0xc03e9173	-2.9776275
214	0xc0528d24	-3.2898645
215	0x40e41103	7.1270766
216	0x40e9fb7e	7.3119497
217	0xbbdcc6df	-0.0067375745
218	0xc00b4fbc	-2.1767416
219	0x403980ec	2.8984938
220	0x4075581b	3.8335025
221	0x3f3b84e6	0.7324966
222	0x3ff115db	1.8834795
223	0x3ff2b576	1.8961627
224	0x407666b9	3.8500197
225	0xc0552e8d	-3.3309662
226	0xc0678bf3	-3.6179168
227	0xc0b25404	-5.572756
228	0x40295c3f	2.6462553
229	0x3f78d211	0.97195536
230	0x411ecfed	9.925763
231	0xbdd5acf1	-0.104333766
232	0x3fef619d	1.8701664
233	0x405250c8	3.2861805
234	0x401de6ee	2.4672198
235	0xbf0a0847	-0.5391888
236	0xc053230e	-3.2990146
237	0xbf7017fc	-0.937866
238	0x3f8af5e0	1.0856285
239	0xc0295074	-2.6455355
240	0xbdb1132a	-0.086462334
241	0x3cf028e5	0.029316375
242	0xbf21a3f0	-0.63140774
243	0x40601f82	3.501923
244	0x4075027d	3.8282769
245	0x4015a406	2.3381362
246	0x3fd33188	1.6499491
247	0xc0062952	-2.096272
248	0x3fd51ddd	1.6649739
249	0xc0102d84	-2.252778
250	0x407d3acc	3.9567137
251	0x40b0924b	5.517858
252	0x3e9d5037	0.30725262
253	0x409daa1c	4.9270153
254	0xc021f363	-2.5304801
255	0xc029111c	-2.6416693

fc.weight f4 [1, 64]
0	0xc48c0922	-1120.2854
1	0x448befd2	1119.4944
2	0x448f083b	1144.2572
3	0xc48d9d25	-1132.9108
4	0xc48c5f61	-1122.9806
5	0x448dfb72	1135.8577
6	0x448ee80c	1143.2515
7	0xc48f015a	-1144.0422
8	0x448cf714	1127.7212
9	0x448da86c	1133.2632
10	0xc48d0e43	-1128.4457
11	0xc48c7966	-1123.7937
12	0x448e8459	1140.1359
13	0x448dd3c4	1134.6177
14	0xc48f2116	-1145.0339
15	0xc48d54df	-1130.6522
16	0x448d3c78	1129.8896
17	0x448d07d1	1128.2443
18	0x448f3441	1145.6329
19	0x448e09cf	1136.3065
20	0x448c8aaf	1124.3339
21	0xc48d2579	-1129.171
22	0xc48d5dd6	-1130.9324
23	0x448c23e3	1121.1215
24	0xc48be604	-1119.188
25	0x448cd06c	1126.5132
26	0xc48c9d90	-1124.9238
27	0xc48e2cba	-1137.3977
28	0x448dd6c1	1134.711
29	0xc48e60b6	-1139.0222
30	0xc48da845	-1133.2584
31	0xc48ea5e0	-1141.1836
32	0xc48e2026	-1137.0046
33	0x448ec863	1142.2621
34	0xc48ea90d	-1141.2828
35	0x448f13a1	1144.6134
36	0x448c285d	1121.2614
37	0xc48c948f	-1124.6425
38	0xc48c78ee	-1123.779
39	0xc48ee19b	-1143.0502
40	0xc48cd5d5	-1126.6823
41	0x448c17c7	1120.743
42	0x448d4e75	1130.4518
43	0xc48bd1dd	-1118.5582
44	0xc48e9a81	-1140.8282
45	0x448cead3	1127.3383
46	0x448ef27a	1143.5774
47	0xbf602885	-0.8756183
48	0xc48f1a0a	-1144.8137
49	0x448cb5a5	1125.6764
50	0x448d0545	1128.1647
51	0x448df0aa	1135.5208
52	0xc48d90d5	-1132.526
53	0x448cd0fb	1126.5306
54	0x448cd7aa	1126.7395
55	0x448ec0f2	1142.0295
56	0x448c570f	1122.7206
57	0x448e870e	1140.2205
58	0xc48be48e	-1119.1423
59	0x448cdf92	1126.9866
60	0xc48d5cef	-1130.9042
61	0x448c7518	1123.6592
62	0x448e111e	1136.5349
63	0xc48f1737	-1144.7255
