models/global_lstm_state_problema.pth (torch, 97214 bytes, 8 tensors)

store_emb.weight f4 [45, 4]
0	0x3fba2d63	1.4545101
1	0xbf1d51b8	-0.6145282
2	0xbef94f4c	-0.4869331
3	0xbd4fe0a9	-0.050751362
4	0xbebd487b	-0.3696936
5	0x3faaefbe	1.3354414
6	0xbeebdfbc	-0.46069133
7	0xbfab2e93	-1.3373588
8	0x3e700d1a	0.23442498
9	0x3f4278c8	0.7596555
10	0xbf0eb633	-0.55746764
11	0x3eac6561	0.33671096
12	0x3d10a20a	0.035310782
13	0x3fae78ff	1.3630675
14	0x3d96f732	0.073713675
15	0x3f6a936d	0.91631204
16	0x3f8ff499	1.124652
17	0x3e3cf753	0.18453722
18	0x3f577fa1	0.8417912
19	0x3e849612	0.25895745
20	0x3e5a6d2f	0.21330713
21	0xbeff79df	-0.49897668
22	0x3f7e84d5	0.99421436
23	0x3eee043e	0.46487612
24	0xbea176a4	-0.31535828
25	0xbf1258b1	-0.5716658
26	0x3f7ff8a2	0.9998876
27	0xbedb7153	-0.42859897
28	0x3f6bc57a	0.920982
29	0x3ffdc25e	1.9824941
30	0x3f767da2	0.9628545
31	0x3dfa3445	0.12217001
32	0xbff4faec	-1.9139075
33	0x3fc89108	1.566926
34	0xbf59ceb6	-0.8508104
35	0xbfb96bd3	-1.448603
36	0x3f73553c	0.9505193
37	0x3f79e76c	0.97618747
38	0xbf98d684	-1.1940465
39	0x3fe6c2c5	1.8028189
40	0x3ec7e723	0.3904353
41	0x3f243c2a	0.64154303
42	0xbe8b14e8	-0.27164388
43	0xbf49f4d5	-0.7888921
44	0x3ed664e9	0.41873863
45	0x3f92f5b8	1.1481237
46	0xc00e0c9f	-2.2195203
47	0xbe54c34a	-0.20777622
48	0x3f0028e5	0.500624
49	0xbf5ea126	-0.86964643
50	0xbec1fdf3	-0.3788906
51	0xbff129f4	-1.8840928
52	0xbeef04a6	-0.46683234
53	0xbfafc943	-1.3733295
54	0x3f6b14cb	0.918286
55	0x3eafa329	0.3430417
56	0xbfeabc12	-1.8338645
57	0xbedb3739	-0.4281557
58	0xbf216571	-0.6304541
59	0x3ed62888	0.41827798
60	0xbf32cda1	-0.69845015
61	0xbd0a35cf	-0.033742722
62	0xbf3e2e13	-0.74289054
63	0x3e48e4e2	0.19618562
64	0x3fa34943	1.2756733
65	0x3fb25130	1.3931026
66	0x3eb1667e	0.34648508
67	0x3fc14f0f	1.5102252
68	0xbf4478a5	-0.7674659
69	0xbdd92d5e	-0.10604356
70	0x3f9682b1	1.1758634
71	0xbee28f8a	-0.44250137
72	0x3dc2d7a7	0.09513789
73	0x3fa0bffe	1.2558591
74	0x3f937b8d	1.152208
75	0x3f896c12	1.0736105
76	0x3ee7bfd2	0.45263535
77	0xbf31778d	-0.69323045
78	0xbeda850d	-0.42679635
79	0xbe89c3f3	-0.2690731
80	0xbfbc24e8	-1.4698763
81	0x3f0b13fc	0.5432737
82	0xbe8f8e90	-0.28038454
83	0xbeca7520	-0.39542484
84	0x3f0dcfc5	0.55395156
85	0x3f1d775a	0.6151024
86	0x3e33263a	0.17495051
87	0xbe9aaa42	-0.3020802
88	0xbf9ac1ee	-1.2090433
89	0xbf054446	-0.520573
90	0x3f4e1a26	0.8050865
91	0xbe925b17	-0.2858512
92	0xbe5ff0e5	-0.21869238
93	0xbf82730a	-1.0191357
94	0xbeff6c77	-0.4988744
95	0xbf823598	-1.0172606
96	0xbfca5580	-1.5807343
97	0xbf4e7be6	-0.80657804
98	0xbfd78216	-1.6836574
99	0xbc477bf9	-0.0121755535
100	0xbf5e5fa4	-0.86864686
101	0x3f675e1a	0.9037796
102	0x3d30e88d	0.043190528
103	0xbfb778d9	-1.4333755
104	0xbf2c4e2e	-0.6730679
105	0x3f8cc009	1.0996104
106	0x3f31a6ee	0.6939534
107	0x3f01674a	0.5054823
108	0xbf12e792	-0.573846
109	0xbfed1c6a	-1.8524296
110	0x3faf3663	1.3688473
111	0xbff12844	-1.8840413
112	0xbfb3b810	-1.4040546
113	0x3f028f73	0.51000136
114	0x3f862a2a	1.0481617
115	0x3f8bcb99	1.0921508
116	0xbf038830	-0.5137968
117	0xbfde938d	-1.7388779
118	0x3ed9cc0c	0.42538488
119	0xc08885a2	-4.2663126
120	0x3f6f4318	0.9346175
121	0x3f885637	1.0651311
122	0xbf9686a3	-1.1759838
123	0xbf30cde1	-0.69064146
124	0xc03109cc	-2.766223
125	0x3f980c77	1.1878804
126	0x3fa9b7fd	1.3259274
127	0x3d4284ff	0.047490116
128	0xbfb9ec2b	-1.4525198
129	0x3f8696ee	1.051481
130	0xbf104866	-0.5636047
131	0x3e916552	0.28397614
132	0xc008ab4d	-2.1354554
133	0xbf463335	-0.77421886
134	0xbf9fedb9	-1.2494422
135	0xbf8a19ea	-1.0789158
136	0x3fb76ad7	1.432948
137	0xc001ff83	-2.0312202
138	0xbea3ce76	-0.31993455
139	0xbc8e6abf	-0.017384885
140	0x3ed9ac5e	0.42514318
141	0x3fd64b65	1.6741759
142	0xbf3555d2	-0.70834076
143	0xbf222dd0	-0.63351154
144	0x3f0a2cfc	0.5397489
145	0x3f990155	1.1953532
146	0x3ed2503e	0.41076845
147	0x3f3c9ea2	0.73679554
148	0xc01b8656	-2.4300742
149	0x3e648f7b	0.22320358
150	0xbe8b62c5	-0.27223793
151	0xbe9dbb1d	-0.3080682
152	0xbfb85b3b	-1.4402841
153	0x3f85e3b3	1.0460113
154	0xbf569a61	-0.83829314
155	0xbe6dad00	-0.23210526
156	0xbfa1e13a	-1.2646859
157	0x3f9b7f49	1.2148219
158	0x3f104497	0.5635466
159	0x3fa2a0fc	1.2705379
160	0xbe8b1bc9	-0.27169636
161	0xbf6333c2	-0.8875085
162	0x3f25d1ae	0.6477307
163	0xbe9b1c56	-0.30295056
164	0x3df18b98	0.117942035
165	0xbf834e2e	-1.0258234
166	0x3fa6fd23	1.3046001
167	0xc005b998	-2.0894527
168	0xbf88a95f	-1.0676688
169	0x3febc886	1.842057
170	0x3c40c64c	0.011766028
171	0xbd335173	-0.043778848
172	0x40020852	2.0317578
173	0x3f89c20a	1.0762341
174	0xbf4d9fce	-0.8032197
175	0x3f61e653	0.8824207
176	0x3fbeaf09	1.4897166
177	0x3ed5c113	0.41748866
178	0x3f976ab8	1.1829443
179	0x3c8f459a	0.017489243

dept_emb.weight f4 [81, 8]
0	0x3f38309a	0.7194916
1	0xbf83aff1	-1.0288068
2	0xbe601bc3	-0.2188559
3	0x3ee62d35	0.44956365
4	0xbfa14106	-1.2597969
5	0x3fb45b24	1.4090314
6	0x3eeb3f2e	0.4594664
7	0x401dcaff	2.465515
8	0x3e1023ff	0.14076231
9	0x3fdf5dc7	1.7450494
10	0x3efedec7	0.4977934
11	0xbfe1a213	-1.7627586
12	0x3ed06700	0.40703583
13	0xbfbf22ea	-1.493253
14	0xbe324fcf	-0.17413257
15	0x3f2d5da1	0.6772099
16	0x3f4dfee8	0.8046708
17	0x40263d28	2.5974827
18	0xbf1a30de	-0.60230815
19	0xbe098407	-0.1342927
20	0x3f0c682f	0.5484647
21	0x40285c0d	2.6306183
22	0x3fe0ac5a	1.7552598
23	0xbff033ba	-1.8765786
24	0xc00592ff	-2.087097
25	0xbf32299f	-0.6959476
26	0x3feae7f8	1.8352041
27	0xbf655af6	-0.8959192
28	0x3fc27abd	1.5193707
29	0xbf84910a	-1.0356762
30	0x3f7a63cc	0.9780853
31	0xbf526197	-0.8218016
32	0xbf868ccf	-1.0511721
33	0xbfca8b41	-1.5823747
34	0xbfab7d4f	-1.3397616
35	0xc0001b2e	-2.001659
36	0xbf0acb75	-0.542167
37	0x3f07e4b1	0.5308333
38	0xbf5ec655	-0.8702138
39	0x3ff05216	1.8775051
40	0x3ef3ac9a	0.47592622
41	0x3ea2a66d	0.31767598
42	0x3f81d727	1.0143784
43	0x3ea4dacc	0.3219818
44	0xbdf74ce2	-0.12075211
45	0xbf0ea907	-0.55726665
46	0xbf632f61	-0.8874417
47	0x3e3ef91e	0.18649718
48	0x3e8b51f5	0.27210966
49	0xbe484ca3	-0.19560485
50	0x3f27b41e	0.6550921
51	0xbf4db7bf	-0.803585
52	0x3f5f40ae	0.8720807
53	0x3fa7684f	1.3078707
54	0xbc9eeabd	-0.019399041
55	0x3f281357	0.6565451
56	0x3ea8b966	0.32953948
57	0x3e53eb15	0.20695145
58	0x3f60890f	0.87709135
59	0xbd5ab2db	-0.053393226
60	0x3ed832e9	0.4222634
61	0xbde5ec05	-0.11226658
62	0x3f41d307	0.7571263
63	0xbffd626d	-1.9795662
64	0x4008408f	2.1289403
65	0x3f7066bb	0.93906754
66	0x3ec7b56b	0.39005598
67	0xbfeb5add	-1.8387104
68	0xbeacee59	-0.33775595
69	0x3f1c66dc	0.6109445
70	0xbf8f4151	-1.1191808
71	0xbb80e34f	-0.0039333473
72	0xbfcc190b	-1.5945143
73	0x3f491c14	0.7855847
74	0x3eefb933	0.46820983
75	0xbe207eda	-0.1567339
76	0x3e0576a0	0.13033533
77	0x3fd1ae2a	1.6381276
78	0xbf36e98d	-0.7145012
79	0xbef9f1d4	-0.48817313
80	0xbec5f3fa	-0.38662702
81	0x3fb64093	1.4238456
82	0x3f844e55	1.0336405
83	0x3e8365d6	0.25663632
84	0xbe9cabfb	-0.3059996
85	0x3e3451e0	0.17609358
86	0x3f473e6c	0.77829623
87	0x3f667a8a	0.9003073
88	0x3f0dbb6e	0.5536412
89	0xbd0ec1c4	-0.034852758
90	0xbf89ef7d	-1.0776211
91	0x3e9f5778	0.3112142
92	0xbf3d5c3d	-0.7396887
93	0x3e0e13a8	0.13874686
94	0xbeb8e57e	-0.3611259
95	0xbff5622f	-1.9170588
96	0xc0181bc8	-2.3766956
97	0xbf2ca2f0	-0.6743612
98	0xbfe5cfc2	-1.7954028
99	0xbf261cf7	-0.64887947
100	0xbf06b1c2	-0.52614987
101	0xbefe5d56	-0.49680585
102	0xbfed1c49	-1.8524257
103	0x3f296dc7	0.6618313
104	0xbec0c389	-0.3764918
105	0xc025893f	-2.5865018
106	0xbf88e4b7	-1.0694798
107	0xbecd66ce	-0.40117496
108	0x3eaf7bda	0.3427418
109	0x3f8e355d	1.1110035
110	0x3f59d0c6	0.8508419
111	0x3d224834	0.03961964
112	0xbee9753e	-0.4559726
113	0x3fc2afe3	1.5209926
114	0xbfa1cae1	-1.2640039
115	0xbd839df0	-0.064266086
116	0x3f90e0c9	1.1318599
117	0xbf586d1c	-0.8454149
118	0x3fc943a5	1.5723768
119	0xbfb21213	-1.3911766
120	0xbf7c20f2	-0.9848777
121	0x3e4336be	0.19063851
122	0x3f6bd2be	0.9211844
123	0x3fa4f9b6	1.2888706
124	0x3f4cfefb	0.8007657
125	0x3eca4c87	0.3951151
126	0xbfec6033	-1.8466858
127	0xbfc61fa4	-1.5478406
128	0x3f3f1df0	0.74655056
129	0xbef0b500	-0.47013092
130	0x3ec71718	0.38884807
131	0x3f2f815a	0.6855675
132	0x3fa163b0	1.2608547
133	0xbf147567	-0.5799164
134	0x3f06f5a6	0.5271858
135	0xbf758849	-0.9591108
136	0x3f23fdea	0.6405932
137	0xbd8c8ccc	-0.068627924
138	0xbf178f5d	-0.5920313
139	0x4036a606	2.8538833
140	0xbb938d84	-0.004502954
141	0x3ec41da0	0.38303852
142	0xbf032340	-0.5122566
143	0xbe9a1457	-0.30093643
144	0xbf32e212	-0.69876206
145	0xbf0e884e	-0.55676734
146	0xbfc79714	-1.559298
147	0xbe378ea2	-0.17925504
148	0x3da7d62e	0.081951484
149	0x3f573d52	0.8407794
150	0xbeba7c00	-0.3642273
151	0x3ec13ace	0.37740177
152	0x3f7bfdae	0.9843396
153	0x3ea1c5d3	0.3159624
154	0xbe2961f4	-0.16541272
155	0x3f1cebe6	0.6129745
156	0x3fd4ab26	1.661473
157	0x400fd11e	2.2471385
158	0xbee166d6	-0.4402377
159	0x3f1dea48	0.6168561
160	0xbf6040d3	-0.87598914
161	0x3f0fded3	0.5619938
162	0x3d7a645b	0.061130863
163	0xbf45a4d9	-0.7720466
164	0xbf53252e	-0.82478607
165	0x3f7a8897	0.9786467
166	0x3ed8afc0	0.42321587
167	0x3fb60e55	1.4223124
168	0x3f0e4318	0.55571127
169	0x3fbaed7d	1.4603726
170	0xbe74404e	-0.23852655
171	0xbf82c9db	-1.0217851
172	0x3e3ad722	0.18246129
173	0xbf849dcd	-1.0360657
174	0xbef5bc1a	-0.47995073
175	0xbeb9b6cc	-0.36272275
176	0x3ef10e0a	0.47081023
177	0xbf9ed61c	-1.2409091
178	0xbfa03be4	-1.2518277
179	0x3e9c88fe	0.30573267
180	0x3fa294c5	1.2701651
181	0x3f0b19ab	0.5433604
182	0xbe4d266a	-0.20034185
183	0x3df00919	0.11720485
184	0xbe952092	-0.29126412
185	0xbfcf14c2	-1.617821
186	0x3f2b3705	0.6688083
187	0xbf1b0801	-0.6055909
188	0x3e7727a0	0.2413621
189	0xbf269aee	-0.65080154
190	0xbf9a5b18	-1.205905
191	0x3f4d5487	0.80207103
192	0xbfc9aecf	-1.5756472
193	0x3f1d7b5d	0.6151636
194	0x3f74c2dd	0.9560984
195	0x3f55dcdf	0.8354015
196	0x3f07bbfc	0.53021216
197	0xbf8e9dc5	-1.1141897
198	0x40187e5e	2.3827128
199	0xbf2c0c2b	-0.67206067
200	0x3faf3eb8	1.3691015
201	0x3fb26b7a	1.3939049
202	0x3fb524d4	1.4151864
203	0x40056ccb	2.0847652
204	0xbc2f4950	-0.010698631
205	0x3f7dff4d	0.99217683
206	0x3f755eab	0.95847577
207	0x3e8928e8	0.26789021
208	0xbfac8c25	-1.3480269
209	0xbf28894b	-0.6583449
210	0x3f0f436f	0.5596227
211	0x3e9ef682	0.31047446
212	0x3e85833b	0.26076683
213	0x3e1b7775	0.15182288
214	0xbe15192e	-0.14560387
215	0x3fc86a11	1.5657369
216	0x3f8293b7	1.0201329
217	0xbf0dc6b0	-0.553813
218	0x3f5c38f7	0.8602442
219	0x3f1bf0b1	0.6091414
220	0x3f42356f	0.75862783
221	0x4022aab2	2.5416684
222	0xbf0f7f8c	-0.56053996
223	0xbd845108	-0.06460768
224	0x3d82a1d1	0.0637852
225	0xbe03a23d	-0.12854858
226	0x401ce1f3	2.4512908
227	0xbea10ed6	-0.3145663
228	0x3ebf0a00	0.37312317
229	0x3efc1a34	0.4923874
230	0x3ebc50ac	0.36780298
231	0x3dd462ae	0.10370384
232	0xbf731e9a	-0.9496857
233	0xbca2221f	-0.01979166
234	0x3e08bb68	0.1335274
235	0x3ffb32d6	1.9624889
236	0x3e7e863b	0.24855892
237	0xbf29c6f8	-0.6631923
238	0x3f83adf1	1.0287458
239	0xbf058881	-0.52161413
240	0x3efaba9a	0.4897049
241	0xbea510a0	-0.32239246
242	0xbe4c8b04	-0.19974905
243	0xbe8eef4b	-0.2791694
244	0x3ed741e8	0.4204247
245	0x3efcd3a6	0.49380225
246	0xbf9f54f2	-1.2447798
247	0x3e7b5974	0.24545842
248	0x3e45c7e4	0.19314533
249	0x3fac9d5d	1.3485523
250	0xc009cb5a	-2.1530366
251	0x3dbd73bd	0.09250591
252	0xbeec59f1	-0.4616237
253	0x3f2f60ae	0.68506896
254	0xbf5a11f6	-0.85183656
255	0xbfe82f8e	-1.8139513

type_emb.weight f4 [3, 2]
0	0xbf3c4450	-0.73541737
1	0xbee1927a	-0.44057065
2	0xbfe3b638	-1.7789984
3	0x3f7a3740	0.97740555
4	0x3f708167	0.9394745
5	0x3f6e0dc5	0.9298976

lstm.weight_ih_l0 f4 [256, 22]
0	0xbda6891a	-0.08131619
1	0xbd707054	-0.058700874
2	0xbd22b944	-0.039727464
3	0x3d5db400	0.05412674
4	0xbdb7928c	-0.089634985
5	0x3d8b2d62	0.067957655
6	0xbc8c5188	-0.01712872
7	0xbcb22f50	-0.021751076
8	0x3dd512b2	0.104039565
9	0x3db356e2	0.08756806
10	0xbda892f0	-0.08231151
11	0x3bedb980	0.0072547793
12	0x3df7340a	0.120704725
13	0xbd2ec3ac	-0.042667076
14	0x3d104d2c	0.035229847
15	0x3d676acc	0.056498334
16	0x3de52d74	0.1119031
17	0xbd9fe746	-0.07807784
18	0xbb641f40	-0.0034808666
19	0x3cdaecb0	0.02672419
20	0x3d0b0ecc	0.03394966
21	0x3d1bcdf4	0.03803821
22	0x3d7125dc	0.058873996
23	0x3d895208	0.06705099
24	0xbc536200	-0.012901783
25	0x3cf541c0	0.029938579
26	0xbc9d3d10	-0.019194156
27	0x3d4e4b34	0.050364688
28	0xbd8784f0	-0.06617153
29	0x3db100ca	0.086427286
30	0xbdf4e5fe	-0.1195793
31	0x3d588808	0.052864105
32	0xbdb69a12	-0.08916105
33	0x3dddb8ac	0.10826239
34	0xbd5d7098	-0.054062456
35	0xbd573af0	-0.05254644
36	0x3dc191ea	0.09451659
37	0xbdc9a902	-0.09846689
38	0xbdd05358	-0.101721466
39	0x3d04a598	0.032384485
40	0xbdded99a	-0.10881348
41	0xbd017094	-0.031601503
42	0x3d65e428	0.05612579
43	0x3daef800	0.08543396
44	0x3cdeb208	0.027184501
45	0x3db8829e	0.09009288
46	0xbde108bc	-0.10987994
47	0xbd3f30f4	-0.046677545
48	0xbcfbc520	-0.030733645
49	0x3caebce0	0.021330297
50	0xbd807de4	-0.06274012
51	0xbccda270	-0.02510187
52	0xbc918138	-0.017761812
53	0xbddb4cde	-0.10708021
54	0x3c4eaea0	0.012614876
55	0xbdaecea6	-0.08535509
56	0x3dbc793e	0.092028126
57	0xbd853924	-0.06505039
58	0x3c3401f0	0.01098679
59	0x3da614b6	0.08109419
60	0xbdde55b0	-0.10856187
61	0x3cae8190	0.021302015
62	0xbdd75db4	-0.10515919
63	0x3d653cac	0.055966064
64	0x3d60a054	0.0548404
65	0xbda501ac	-0.080569595
66	0x3d0e6468	0.034763724
67	0x3dd65720	0.104658365
68	0xbdcce8e8	-0.10005361
69	0xbdcd36ea	-0.1002024
70	0x3debb0c8	0.11508328
71	0x3df9aa88	0.121907294
72	0x3df58280	0.119877815
73	0xbcf14048	-0.029449597
74	0xbd45a04c	-0.048248574
75	0xbdc640d6	-0.09680335
76	0xbca2cb50	-0.019872338
77	0xbc853118	-0.016258761
78	0x3de9e744	0.114210635
79	0x3dc81b3c	0.097708195
80	0xbdab6388	-0.083685935
81	0x3d57f4bc	0.05272363
82	0xbd6390e4	-0.0555581
83	0xbdea78b6	-0.11448805
84	0xbbb04d20	-0.0053802878
85	0x3d5f0fa0	0.05445826
86	0x3d9f7b3c	0.07787177
87	0xbdecfeb4	-0.11572018
88	0x3dd66f3e	0.104704365
89	0xbdf6eabc	-0.12056491
90	0xbde00410	-0.10938275
91	0x3ddd6f90	0.108122945
92	0x3d58530c	0.052813575
93	0x3d25023c	0.040285334
94	0x3cb82af0	0.022481412
95	0xbdc4631c	-0.09589216
96	0xbdedc75c	-0.116102904
97	0x3da39940	0.079882145
98	0xbbc75ee0	-0.006084308
99	0x3c9fe9d0	0.01952067
100	0xbd026b78	-0.03184077
101	0x3d6e7c80	0.0582242
102	0x3dcc2a9e	0.09969066
103	0x3da8a1d0	0.08233988
104	0xbc584ba0	-0.013201624
105	0xbd6497d8	-0.055808872
106	0x3c3c8d60	0.011508316
107	0x3da5f6ee	0.08103739
108	0xbd7eec70	-0.062237203
109	0x3de87cca	0.113519266
110	0xbd0ab1cc	-0.033860967
111	0x3d37dbf0	0.044887483
112	0xbd054840	-0.032539606
113	0xbdc780d0	-0.09741366
114	0x3dd37602	0.103252426
115	0xbcdec010	-0.027191192
116	0xbd95e530	-0.07319105
117	0x3cf94d98	0.030432507
118	0xbc6799a0	-0.014135748
119	0x3cbf2658	0.023333713
120	0x3ddc8322	0.10767199
121	0x3dcbce70	0.09951484
122	0x3dcac368	0.09900552
123	0x3dd372ae	0.10324608
124	0xbd8d111c	-0.06888029
125	0x3d3d9d74	0.046292737
126	0x3d550148	0.052003175
127	0x3de25a0a	0.1105233
128	0x3d8f822e	0.07007252
129	0x3dd40df8	0.10354227
130	0xbce81d78	-0.028334364
131	0xbdb135cc	-0.08652839
132	0x3db4d54c	0.08829746
133	0xbd400c64	-0.046886817
134	0x3c81bdb0	0.01583752
135	0x3da29cc2	0.079400554
136	0x3d7582b8	0.059939116
137	0x3d95284c	0.07283077
138	0x3d3c8158	0.04602179
139	0xbda527e0	-0.08064246
140	0xbdd95dbc	-0.106135815
141	0x3cd1acd0	0.025595099
142	0xbdee36b4	-0.116315275
143	0x3bf882a0	0.007583931
144	0x3dca5e90	0.098813176
145	0x3d917b9e	0.07103656
146	0xbd5dd8e4	-0.05416192
147	0x3c3d7930	0.011564538
148	0x3dfca0d0	0.1233536
149	0x3d9a8c62	0.07546307
150	0x3df9f7d8	0.122054756
151	0x3dd5a718	0.10432261
152	0x3d8c17fa	0.06840511
153	0xbd51a2f4	-0.051180795
154	0xbb050b00	-0.0020300746
155	0x3d66ec50	0.05637771
156	0xbd21d5a0	-0.03951037
157	0xbd32b660	-0.043630958
158	0xbc411a20	-0.011786014
159	0xbb8bfda0	-0.004272178
160	0xbc91f970	-0.017819136
161	0x3daf9152	0.085726395
162	0x3d1f503c	0.038894877
163	0xbdd31ab4	-0.103078276
164	0x3dd7b0ec	0.10531792
165	0x3c8018a8	0.015636757
166	0x3d078fa8	0.033095986
167	0xbdd164f8	-0.102243364
168	0x3db9ddaa	0.09075482
169	0x3d363084	0.04447986
170	0xbd466134	-0.048432544
171	0xbce10830	-0.027469724
172	0x3de7b090	0.113129735
173	0xbd84d174	-0.064852625
174	0xbd960688	-0.073254645
175	0x3d56b7d4	0.052421406
176	0x3d4d89f0	0.050180376
177	0xbdff6dde	-0.124721274
178	0xbdedec38	-0.11617321
179	0x3b13ac40	0.002253309
180	0x3d5c12dc	0.053728923
181	0x3dc802c8	0.097661555
182	0x3de668ee	0.112504825
183	0xbddd898e	-0.10817252
184	0xbdf6d164	-0.12051657
185	0x3de3f1e6	0.11130123
186	0x3dc83164	0.097750455
187	0x3da71b46	0.08159499
188	0x3d576c5c	0.052593574
189	0xbd839c20	-0.06426263
190	0x3de510c2	0.11184837
191	0x3b3d3ec0	0.0028876513
192	0xbd16b654	-0.036794975
193	0xbb004cc0	-0.0019576997
194	0xbda5da88	-0.08098322
195	0x3dbd7ce6	0.09252338
196	0xbdbce7ee	-0.092239246
197	0x3d9a5700	0.07536125
198	0x3d93837a	0.072028115
199	0x3d17bda8	0.037046105
200	0xbd2135b0	-0.03935784
201	0x3dc4fe30	0.09618795
202	0x3d6ce66c	0.057836935
203	0x3d735ea0	0.059416413
204	0x3da814dc	0.082071036
205	0x3d960ff2	0.0732726
206	0x3de64018	0.11242694
207	0xbdb283a8	-0.08716518
208	0xbcb70530	-0.02234134
209	0xbd6ba340	-0.057528734
210	0xbc9b8ae8	-0.018987134
211	0x3da8d45a	0.08243628
212	0xbda671b0	-0.08127153
213	0xbcfb5ce8	-0.03068395
214	0xbdf5b6f4	-0.11997786
215	0x3dee6112	0.116396084
216	0x3c5ba750	0.01340659
217	0x3b9c6900	0.004773259
218	0xbde42928	-0.111406624
219	0x3da22620	0.07917428
220	0x3d966140	0.07342768
221	0x3d48a9f8	0.04899022
222	0xbd33d97c	-0.04390858
223	0x3c519b90	0.012793437
224	0x3d02de34	0.03195019
225	0xbc08e760	-0.008355945
226	0xbd30905c	-0.04310642
227	0xbde2b8ea	-0.11070426
228	0x3db5dda6	0.08880167
229	0xbdb64c62	-0.089012876
230	0x3d411794	0.047141626
231	0xbdba70ac	-0.09103522
232	0xbc568c10	-0.013094917
233	0x3d05a6f4	0.032629922
234	0x3d34c504	0.0441332
235	0xbc898450	-0.016786724
236	0x3d09b94c	0.03362398
237	0xbd5efbd4	-0.05443938
238	0xbdee4d62	-0.11635853
239	0xbd659050	-0.05604583
240	0x3d6cc0e0	0.057801127
241	0x3db66272	0.08905496
242	0xbb63b800	-0.0034747124
243	0xbcc6a058	-0.02424638
244	0x3c92f5e0	0.017939508
245	0x3d5ca010	0.053863585
246	0x3ddf98fa	0.1091785
247	0xbd556144	-0.052094713
248	0x3c19ac40	0.0093794465
249	0xbdb68efa	-0.08913989
250	0xbdcbdce4	-0.09954241
251	0x3d3cf15c	0.046128616
252	0xbdc6bfa4	-0.09704521
253	0xbc5af280	-0.013363481
254	0x3d67d7b8	0.05660221
255	0xbcdeabf0	-0.027181596

lstm.weight_hh_l0 f4 [256, 64]
0	0xbc35a610	-0.011086956
1	0xbd966c6c	-0.073448986
2	0xbdca08ca	-0.09864958
3	0xbd8a8e22	-0.06765391
4	0xbd57b1a0	-0.05265963
5	0xbd25ffe4	-0.04052724
6	0xbc639840	-0.01389128
7	0xbdde679e	-0.10859607
8	0xbcfe4500	-0.031038761
9	0xbded04b4	-0.11573163
10	0xbd94ae84	-0.07259849
11	0xbdf463ce	-0.11933099
12	0xbdbc1020	-0.09182763
13	0x3dcdba84	0.10045341
14	0xbd945068	-0.07241899
15	0x3d094a40	0.033518076
16	0xbd5d9bc8	-0.054103643
17	0xbcd439f0	-0.025906533
18	0x3d323848	0.043510705
19	0x3de2c0b0	0.110719085
20	0xbd8d3ea2	-0.06896712
21	0x3da431bc	0.080172986
22	0x3dec879e	0.115493044
23	0xbd9f554a	-0.077799395
24	0xbdde01d2	-0.10840191
25	0x3d7b65a8	0.061376244
26	0xbb75f1c0	-0.0037528127
27	0xbb89f800	-0.004210472
28	0xbdb31440	-0.08744097
29	0xbc8591d8	-0.016304895
30	0xbdbf0aea	-0.093282536
31	0x3d7c1858	0.061546654
32	0x3be55e40	0.006999761
33	0x3dd283ca	0.10279043
34	0xbda778ac	-0.08177313
35	0x3d2bb6c8	0.04192236
36	0x3ddb643c	0.107124776
37	0xbd335ad0	-0.043787777
38	0xbdf40cc0	-0.11916494
39	0xbd97e8c0	-0.074174404
40	0xbd9ef5f0	-0.077617526
41	0xbd821ea4	-0.063535005
42	0xbd96ddc0	-0.07366514
43	0xbde90560	-0.11377978
44	0x3d1f23d0	0.038852513
45	0xbd444ed0	-0.047926724
46	0xbdc07fa8	-0.093993485
47	0xbc4dbe20	-0.012557536
48	0x3c601650	0.013677195
49	0xbdc02ea8	-0.09383899
50	0xbdcf30fc	-0.10116765
51	0xbdc4f38a	-0.09616764
52	0x3daf3fbc	0.08557078
53	0x3de3c640	0.111217976
54	0x3c0d2c80	0.008616567
55	0x3b2b8700	0.0026172996
56	0xbdd44afa	-0.10365863
57	0x3cf1fec0	0.02954042
58	0x3c54b610	0.01298286
59	0x3d360b14	0.04444416
60	0x3d99922c	0.07498583
61	0xbce74cd0	-0.02823487
62	0xbd388774	-0.045051053
63	0x3da04fd4	0.07827726
64	0x3c1dda60	0.009634584
65	0x3beff8a0	0.0073233396
66	0xbcc28590	-0.023745328
67	0x3dae5afa	0.08513446
68	0x3dd56586	0.10419755
69	0xbdfde1be	-0.123965725
70	0xbb2db380	-0.0026504695
71	0x3dc3252e	0.09528576
72	0x3d95aad4	0.073079735
73	0x3c2e7e90	0.010650292
74	0xbdd0f3f4	-0.1020278
75	0xbbbb2c20	-0.005712047
76	0xbb652680	-0.0034965575
77	0xbdc77e02	-0.09740831
78	0xbd6ecb98	-0.05829963
79	0x3dcde284	0.1005297
80	0x3b9074c0	0.004408449
81	0x3cc16648	0.023608342
82	0xbce19bf8	-0.027540192
83	0xbd70d1b8	-0.058793753
84	0x3d2a9488	0.041645557
85	0xbd6cc0c4	-0.057801023
86	0x3dd3f918	0.10350245
87	0x3dcea9da	0.1009099
88	0x3daa8e26	0.08327894
89	0xbd74d828	-0.059776455
90	0x3de80bae	0.11330353
91	0x3dbf79e8	0.09349424
92	0x3de54bf0	0.111961246
93	0xbdf2cc2a	-0.118553475
94	0x3dcab1d4	0.09897199
95	0xbd41bd80	-0.047299862
96	0x3ddffd06	0.10936932
97	0x3c921c08	0.017835632
98	0xbd1c094c	-0.038094804
99	0xbb86d400	-0.004114628
100	0xbd9caa14	-0.07649627
101	0xbbde8840	-0.0067911446
102	0xbd97b8ee	-0.074083194
103	0xbd183088	-0.037155658
104	0xbd1c3de0	-0.038144946
105	0xbdb06050	-0.0861212
106	0xbd9aae50	-0.07552779
107	0xbba18f20	-0.004930392
108	0x3bfcdee0	0.0077169985
109	0x3c46a130	0.012123391
110	0xbd836048	-0.064148486
111	0xbd2b04f0	-0.041752756
112	0xbd4b4b08	-0.049632102
113	0x3d74b618	0.05974397
114	0x3bd86160	0.006603405
115	0x3d3fc100	0.04681492
116	0x3bfd8d40	0.0077377856
117	0xbca35f58	-0.019942924
118	0x3d22c59c	0.039739236
119	0xbdcf9686	-0.10136132
120	0xbc123df0	-0.0089259
121	0x3c5bc380	0.01341331
122	0x3d3493ec	0.04408638
123	0xbcd70088	-0.02624537
124	0xbcc45d30	-0.023970217
125	0xbdf57286	-0.11984734
126	0x3c129580	0.008946776
127	0x3dad219e	0.084536776
128	0xbdc74a12	-0.09730925
129	0x3dbaaf7a	0.09115501
130	0x3dfc669c	0.12324259
131	0xbdc168ea	-0.09443839
132	0x3dfed4ea	0.12442954
133	0xbd4aaa74	-0.049478963
134	0xbdd9d038	-0.10635418
135	0x3de4c124	0.11169651
136	0xbd989d26	-0.07451849
137	0x3d957bf2	0.07299031
138	0xbdc88b2c	-0.0979217
139	0x3dd2d380	0.10294247
140	0xbb0b2f40	-0.002123788
141	0x3d9c9774	0.07646075
142	0x3d2fc0d0	0.04290849
143	0x3dbcb552	0.092142716
144	0xbde9f922	-0.114244714
145	0x3d6f3cc0	0.058407545
146	0xbdc136c8	-0.09434277
147	0x3dc8e634	0.09809533
148	0x3cfd16a0	0.030894578
149	0xbce97778	-0.02849935
150	0x3ca8e4c8	0.020616904
151	0x3db32094	0.08746448
152	0x3d9bef7a	0.07614036
153	0xbd828bca	-0.06374319
154	0xbdd30250	-0.103031754
155	0x3cd4cb58	0.025975868
156	0xbc844fb0	-0.01615128
157	0x3dc9e45a	0.09858008
158	0x3d84c89a	0.06483574
159	0xbdc77356	-0.097387955
160	0x3d9d54e4	0.07682207
161	0x3d3153bc	0.043292746
162	0x3dd9871a	0.10621472
163	0xbd958c66	-0.073021695
164	0x3d84b90a	0.06480606
165	0x3d9b9762	0.07597233
166	0x3df1874c	0.11793384
167	0x3dd91634	0.10599938
168	0xbdf4d2d0	-0.11954272
169	0x3d9c379e	0.07627796
170	0xbda82f9c	-0.08212206
171	0x3d18b578	0.037282437
172	0xbdcd7cc6	-0.10033564
173	0xbd50369c	-0.05083333
174	0x3c554540	0.013016999
175	0x3d0fe6c0	0.03513217
176	0xbd1c7c90	-0.03820473
177	0xbdc567b2	-0.09638919
178	0xbd0695c8	-0.032857686
179	0x3ca6f910	0.020382434
180	0xbd731828	-0.05934921
181	0xbde85376	-0.11344044
182	0xbdfc42e8	-0.12317449
183	0x3d196abc	0.037455305
184	0xbdce27c6	-0.1006618
185	0x3da8e95e	0.08247636
186	0xbd4c76fc	-0.04991816
187	0x3d2f1d98	0.042752832
188	0xbdbba390	-0.091620564
189	0x3c1547c0	0.009111345
190	0x3d4dcdb0	0.050244987
191	0x3cc7da68	0.024396136
192	0xbdca3bd4	-0.098746926
193	0x3ce4a8c0	0.027912498
194	0x3d570890	0.0524984
195	0xbd8c263a	-0.06843229
196	0x3df580b8	0.11987442
197	0xbd9d02a4	-0.07666519
198	0x3d67456c	0.05646269
199	0x3d7c59ac	0.061608955
200	0x3da6dff0	0.081481814
201	0xbcd30b20	-0.02576214
202	0x3d948806	0.07252507
203	0xbda245e2	-0.07923485
204	0x3dc0c3e2	0.09412362
205	0x3d677540	0.056508303
206	0xbdd35834	-0.10319558
207	0x3dc850c6	0.09781031
208	0x3cbf8810	0.02338031
209	0x3c359bb0	0.011084482
210	0x3c84a220	0.016190588
211	0x3db6ab94	0.08919445
212	0xbc209780	-0.009801745
213	0x3df69cb6	0.12041609
214	0xbcb28820	-0.021793425
215	0xbdb7b9c0	-0.08970976
216	0x3df05bc6	0.117362544
217	0x3cb004f8	0.021486744
218	0x3c97a838	0.01851283
219	0xbd978590	-0.07398522
220	0xbde8c6dc	-0.113660544
221	0x3dfe4eac	0.12417349
222	0xbd064034	-0.032776073
223	0x3daf32c2	0.08554603
224	0x3dd8d938	0.10588306
225	0xbdc0bffc	-0.09411618
226	0x3d51d6b4	0.051230147
227	0xbd7428e0	-0.059609294
228	0xbd308814	-0.043098524
229	0xbdee7b8e	-0.1164466
230	0xbccc8268	-0.024964526
231	0xbd395c04	-0.04525377
232	0xbdd8cb60	-0.10585666
233	0xbdb0c632	-0.08631553
234	0x3d9cda5c	0.07658836
235	0xbd55999c	-0.052148446
236	0x3d83e6dc	0.06440517
237	0xbd5ac1e8	-0.05340758
238	0xbde53d26	-0.11193304
239	0xbdd513be	-0.10404156
240	0xbd8a67e8	-0.067581
241	0x3cb0b940	0.02157271
242	0x3d9aa536	0.07551043
243	0xbdc01e6c	-0.093808025
244	0xbd63e72c	-0.055640385
245	0xbc69da60	-0.014273256
246	0xbdd453aa	-0.1036752
247	0x3d7ad7f8	0.06124112
248	0x3d92dd42	0.07171108
249	0xbd4d4824	-0.050117627
250	0x3d233e08	0.03985408
251	0xbcf47948	-0.029842988
252	0x3d324e08	0.043531448
253	0x3d6f5334	0.058428958
254	0x3d92c504	0.07166484
255	0x3d5ccc44	0.05390574

lstm.bias_ih_l0 f4 [256]
0	0xbd8c30fc	-0.068452805
1	0x3d15bb08	0.03655532
2	0x3d88d3ca	0.066810206
3	0xbcb82bd0	-0.022481829
4	0xbd10ff5c	-0.03539978
5	0xbdb97eee	-0.09057413
6	0x3dc675f4	0.096904665
7	0xbde3487e	-0.11097811
8	0x3dc87676	0.0978822
9	0x3db64910	0.08900654
10	0xbbed0560	-0.0072333068
11	0xbd7fd984	-0.0624633
12	0xbd7c1a94	-0.061548784
13	0x3de7e4a8	0.113229096
14	0x3dbc3c14	0.091911465
15	0xbda1c016	-0.078979656
16	0x3db124a2	0.08649565
17	0xbb4b3380	-0.0031006038
18	0x3c1b22f0	0.009468779
19	0xbd2f2dd4	-0.042768314
20	0x3dd3f456	0.10349338
21	0xbdd8e20a	-0.105899885
22	0xbc084a40	-0.008318484
23	0x3dbc064c	0.091808885
24	0xbd83f1e4	-0.06442621
25	0xbd8d412c	-0.06897196
26	0xbb2dab80	-0.0026499927
27	0x3d515974	0.0511107
28	0x3da507f8	0.080581605
29	0x3d15e240	0.036592722
30	0xbd43ae64	-0.047773734
31	0x3c9ff1e0	0.019524515
32	0xbdd66818	-0.10469073
33	0xbdbcf050	-0.092255235
34	0x3d93853c	0.07203147
35	0x3d802fc2	0.06259109
36	0x3dcf89c6	0.101337
37	0x3dbe37c2	0.09287979
38	0xbd248a70	-0.040171087
39	0xbdad8bc4	-0.08473924
40	0xbd6dcfb0	-0.058059394
41	0x3db3b11a	0.08774014
42	0x3d7809e0	0.060556293
43	0x3dcd40e6	0.10022144
44	0x3df51424	0.11966732
45	0x3df11882	0.117722526
46	0xbd04f4e4	-0.03246011
47	0x3dbf1810	0.093307614
48	0xbdc37ade	-0.095449194
49	0x3de139c8	0.10997349
50	0x3dc882ee	0.09790598
51	0xbd290790	-0.041266978
52	0x3b540980	0.0032354295
53	0x3da966be	0.0827155
54	0xbd5d64e0	-0.05405128
55	0x3c947d78	0.018126234
56	0xbdef0c02	-0.11672212
57	0xbde7e400	-0.113227844
58	0x3d000290	0.031252444
59	0xbdf8c5d0	-0.12147105
60	0x3df46130	0.119325995
61	0xbd0abf18	-0.033873647
62	0xbd72e43c	-0.059299693
63	0xbdbf23a6	-0.09332971
64	0x3dc7afaa	0.09750302
65	0xbd2b8d34	-0.04188271
66	0x3d206aa4	0.0391642
67	0xbd174f2c	-0.03694074
68	0xbde9989e	-0.114060625
69	0x3de35042	0.11099292
70	0x3c0b0e60	0.008487314
71	0x3dab8c46	0.083763644
72	0xbd195b38	-0.03744051
73	0x3d5ffb24	0.054682866
74	0xbd2feee0	-0.04295242
75	0x3db9f0bc	0.090791196
76	0xbde18700	-0.11012077
77	0xbbee7a20	-0.007277742
78	0x3dd38c80	0.103295326
79	0x3dc6c942	0.09706356
80	0x3decfe80	0.115719795
81	0x3cee3818	0.029079482
82	0xbdce368a	-0.10068996
83	0x3d3a7a84	0.045526996
84	0xbc4eb6b0	-0.012616798
85	0x3d062428	0.032749325
86	0x3d9c2cd4	0.07625738
87	0x3d87dd12	0.06633963
88	0x3dd40c76	0.10353939
89	0x3dc1cdc4	0.09463075
90	0x3d905f4c	0.070494264
91	0xbd4ec604	-0.05048181
92	0xbc8a4ad0	-0.016881377
93	0x3d8ed5f2	0.069744006
94	0xbd52ddd4	-0.051481083
95	0x3d86447c	0.06556031
96	0x3c7464b0	0.014916584
97	0xbdcd770c	-0.10032472
98	0xbd2a76dc	-0.04161726
99	0xbdc6a274	-0.09698954
100	0xbdf3e1d2	-0.11908306
101	0xbb885be0	-0.004161343
102	0xbd1e95e0	-0.03871715
103	0x3dd5f044	0.10446218
104	0xbdecdb94	-0.11565319
105	0x3d791d90	0.06081921
106	0x3d202e94	0.03910692
107	0x3d16ef48	0.03684929
108	0xbdc8aba4	-0.09798363
109	0xbdeae212	-0.11468901
110	0xbca44600	-0.02005291
111	0x3d227bdc	0.039668903
112	0xbd544b98	-0.051829904
113	0xbd265dfc	-0.040616974
114	0xbd5f77a0	-0.054557443
115	0xbdfa427c	-0.12219712
116	0xbd90d6f0	-0.07072246
117	0x3dfe9916	0.124315426
118	0xbc923a00	-0.017849922
119	0xbc953a18	-0.018216178
120	0x3de0c9bc	0.10975978
121	0x3dc143e2	0.09436776
122	0x3cd319e8	0.025769189
123	0x3dfba7b0	0.12287843
124	0xbd2cd9a0	-0.04219973
125	0x3d102e54	0.035200432
126	0x3d942ef4	0.07235518
127	0xbdc87b70	-0.09789169
128	0x3dd5a756	0.104323074
129	0xbd401dec	-0.046903536
130	0xbd5d5ec0	-0.05404544
131	0xbd2aafb0	-0.041671455
132	0xbd82f2f4	-0.06393996
133	0xbd29fc70	-0.04150051
134	0x3dafbaf4	0.0858058
135	0x3d3b6c8c	0.045757815
136	0xbdc20bfa	-0.094749406
137	0xbc807138	-0.015678987
138	0xbd885b8c	-0.06658086
139	0x3ce06b10	0.027394801
140	0x3cc88430	0.024477094
141	0x3dde76d2	0.10862507
142	0xbd92fcb0	-0.071771026
143	0xbaaa4d80	-0.0012993068
144	0x3dac0f02	0.084013
145	0x3dcaec26	0.09908323
146	0xbcc72f20	-0.024314463
147	0x3c86af20	0.016440928
148	0xbd633de0	-0.05547893
149	0x3d09c168	0.033631712
150	0xbdda57d2	-0.10661282
151	0xbc9cae28	-0.019126013
152	0xbd3d3bc4	-0.046199575
153	0x3cd414d0	0.02588883
154	0xbc5a7d20	-0.013335496
155	0x3df43516	0.11924188
156	0x3bc324c0	0.0059553087
157	0xbd2da020	-0.042389035
158	0x3da1066a	0.078625515
159	0xbdd390de	-0.103303656
160	0xbd6bbb98	-0.05755195
161	0xbd973bd6	-0.0738446
162	0xbd4c1308	-0.049822837
163	0x3dec013a	0.115236714
164	0xbdcf8244	-0.10132268
165	0x3d0cb6cc	0.034354016
166	0xbd59a628	-0.053136975
167	0x3dd2e072	0.10296716
168	0xbc5d2b20	-0.013499051
169	0xbdd0bf22	-0.10192706
170	0xbdb40756	-0.08790462
171	0xbd37ec28	-0.04490295
172	0xbcb45598	-0.02201347
173	0xbd99683e	-0.07490586
174	0xbd9dbafa	-0.077016786
175	0xbd978310	-0.07398045
176	0x3c9a2ab8	0.018819198
177	0x3daf9274	0.085728556
178	0x3bdb00c0	0.006683439
179	0xbb4bc240	-0.0031091124
180	0xbdd73bee	-0.105094776
181	0x3daff766	0.085921094
182	0x3d839178	0.0642423
183	0x3db6be6a	0.08923037
184	0xbccb87e8	-0.024845079
185	0x3d628588	0.055303127
186	0xbd7a9058	-0.061172813
187	0xbdb4a5c6	-0.08820681
188	0x3df4ce72	0.11953439
189	0x3cb5f470	0.022211283
190	0xbd5c8024	-0.053833142
191	0x3daca298	0.0842945
192	0x3c800c50	0.015630871
193	0xbcacf190	-0.02111128
194	0xbde54bfa	-0.11196132
195	0xbdcc872a	-0.09986718
196	0xbd972cec	-0.07381615
197	0x3d3b9f1c	0.045806035
198	0x3d681200	0.05665779
199	0x3dfd6f42	0.12374736
200	0xbdc98ed2	-0.09841694
201	0xbcee4208	-0.02908422
202	0x3d43cd30	0.047803104
203	0xbd474714	-0.04865177
204	0x3d06c794	0.032905176
205	0x3da20e52	0.07912888
206	0x3ddb7b46	0.10716872
207	0xbd6838b4	-0.0566947
208	0x3dcaea6e	0.09907995
209	0xbd110008	-0.03540042
210	0x3c54c870	0.012987241
211	0xbd8fbabe	-0.0701804
212	0xbcca28c0	-0.024677634
213	0x3dc24f8e	0.0948783
214	0xbdcccf08	-0.100004256
215	0x3c7a2c30	0.015269324
216	0x3de2dfbc	0.1107783
217	0x3cf5db68	0.030011848
218	0xbdb9a4c8	-0.09064633
219	0xbd54feb8	-0.05200073
220	0xbdf020cc	-0.117250055
221	0x3de1e2ec	0.1102961
222	0xbd1f76f0	-0.038931787
223	0x3df72b90	0.12068856
224	0xbcf60b68	-0.030034736
225	0xbc9d18d8	-0.019176885
226	0x3c1d2ff0	0.009593949
227	0xbdac6efe	-0.084196076
228	0x3d332958	0.0437406
229	0xbde5cd50	-0.11220801
230	0xbdde4b4a	-0.10854204
231	0xbd1a53f8	-0.037677735
232	0xbd76d280	-0.060259342
233	0xbcb2bf98	-0.021819875
234	0xbc68f280	-0.014217973
235	0xbda00db2	-0.07815112
236	0x3cd7bcc8	0.026335135
237	0xbd99a51e	-0.07502197
238	0xbd83fc0e	-0.0644456
239	0xbde21ffc	-0.11041257
240	0x3dbbf17a	0.091769174
241	0xbddb0d6e	-0.10695921
242	0x3deeee96	0.116666004
243	0xbcea4250	-0.028596073
244	0x3c9b8f58	0.01898925
245	0x3dc92c26	0.09822874
246	0xbdee685e	-0.11641
247	0x3ddbdbfc	0.10735318
248	0x3d196a60	0.037454963
249	0xbbae4cc0	-0.005319208
250	0xbd9e478e	-0.07728492
251	0x3dd20a96	0.10255925
252	0xbd2b6fac	-0.041854545
253	0x3c00f190	0.007870093
254	0xbdccce60	-0.100003004
255	0xbdf1e578	-0.11811346

lstm.bias_hh_l0 f4 [256]
0	0x3dee3688	0.11631495
1	0x3d8e98d6	0.06962745
2	0xbc7711d0	-0.01507993
3	0x3dd5bcaa	0.104363754
4	0x3d42d490	0.047565997
5	0x3c0cd530	0.00859575
6	0x3df6987e	0.12040804
7	0xbd9196d6	-0.07108848
8	0x3da7c494	0.08191791
9	0xbd193308	-0.037402183
10	0x3dd25b1e	0.102712855
11	0x39e3e400	0.00043466687
12	0x3d1292b0	0.035784423
13	0xbdfa5ed2	-0.12225117
14	0xbd0130f4	-0.031540826
15	0xbd981c04	-0.074272186
16	0x3ca66420	0.020311415
17	0x3d740c94	0.059582308
18	0xbddf5c16	-0.10906236
19	0x3dc44754	0.09583917
20	0xbc2035a0	-0.00977841
21	0xbd6f28f0	-0.05838865
22	0x3dc669ac	0.09688124
23	0x3d0edcd4	0.034878567
24	0x3cfa8bf8	0.03058432
25	0x3db3d22c	0.087803215
26	0xbdf92534	-0.12165299
27	0x3dfbf94c	0.12303409
28	0xbb9324e0	-0.00449048
29	0xbd084938	-0.03327295
30	0xbdac3a2c	-0.08409533
31	0x3d521780	0.051291943
32	0x3dd6fd50	0.10497534
33	0x3de22c2e	0.11043583
34	0xbd9f516c	-0.07779202
35	0x3b59d400	0.0033237934
36	0x3d9af0c0	0.07565451
37	0xbded4f88	-0.11587435
38	0xbd618e6c	-0.055067465
39	0xbd029d6c	-0.03188841
40	0x3cd32cd0	0.025778204
41	0xbce21148	-0.027596131
42	0x3c804d48	0.01566185
43	0xbdcdb272	-0.10043801
44	0xbce62370	-0.02809307
45	0x3d970164	0.07373312
46	0x3c717d60	0.014739364
47	0xbd6020b0	-0.054718673
48	0x3cf437d0	0.02981177
49	0xbca180e0	-0.019714773
50	0xbdd28f94	-0.102812916
51	0x3bd0c840	0.006371528
52	0xbc81df68	-0.015853599
53	0xbc12bdd0	-0.008956388
54	0xbd12dbe4	-0.035854235
55	0x3df02caa	0.11727269
56	0x3d977b8c	0.073966116
57	0x3c7644b0	0.015031025
58	0xbdd42a14	-0.10359588
59	0xbc813d60	-0.015776336
60	0x3dd2ff30	0.103025794
61	0xbd91b23a	-0.07114072
62	0x3d48c9bc	0.049020514
63	0x3caa0928	0.02075632
64	0x3d951786	0.07279877
65	0xbc8fd6f8	-0.01755856
66	0x3d7edcc8	0.062222272
67	0xbd0dc210	-0.0346089
68	0x3d01da9c	0.031702623
69	0xbdce5aee	-0.10075937
70	0xbcdd7340	-0.027032495
71	0x3c55e0d0	0.013054088
72	0xbc3ef8d0	-0.011656001
73	0xbd020dd8	-0.031751484
74	0x3c9e2150	0.019302994
75	0xbcafc5d8	-0.021456644
76	0x3c5331f0	0.012890324
77	0xbd03df84	-0.032195583
78	0xbde70d5a	-0.112818435
79	0x3d52da80	0.05147791
80	0xbd7ec020	-0.062194943
81	0xbdd9c5d4	-0.10633436
82	0xbc9cc6c8	-0.019137755
83	0xbcf14738	-0.029452905
84	0x3d917758	0.07102841
85	0xbd59baf8	-0.053156823
86	0x3d577344	0.05260016
87	0xbd49f30c	-0.049304053
88	0x3d18bf2c	0.03729169
89	0xbd5053a0	-0.050861
90	0xbdf230ec	-0.11825737
91	0x3c41e970	0.011835441
92	0x3dc01b00	0.0938015
93	0x3d9c194e	0.07622014
94	0x3d9620fa	0.073305085
95	0x3d731f00	0.059355736
96	0xbc8d7098	-0.017265603
97	0xbdee4dfe	-0.116359696
98	0xbdff3fa4	-0.1246331
99	0x3ddc6236	0.1076092
100	0xbddf7f5a	-0.10912962
101	0xbd225210	-0.039629042
102	0x3df6a084	0.12042335
103	0xbb8f2c40	-0.0043692887
104	0xbd64bfc4	-0.055846944
105	0x3b554e40	0.0032547861
106	0x3d8670dc	0.06564495
107	0xbd33ea48	-0.0439246
108	0x3d6959dc	0.056970462
109	0x3d94d49e	0.07267116
110	0x3d066820	0.032814145
111	0x3dd3bbc8	0.10338551
112	0xbd8abd9e	-0.06774448
113	0xbde716ba	-0.112836316
114	0xbdf871c0	-0.12131071
115	0x3c159d90	0.009131804
116	0xbc909550	-0.017649323
117	0xbd93e9b2	-0.07222308
118	0xbcd50d10	-0.026007205
119	0xbd730c40	-0.059337854
120	0x3cb6c570	0.022310942
121	0x3dac7dba	0.08422418
122	0x3d911488	0.07083994
123	0xbd8d61b0	-0.06903398
124	0x3c20d340	0.009815991
125	0xbcca0878	-0.024662241
126	0xbd8d51e4	-0.06900385
127	0x3d5f063c	0.054449305
128	0xbd207e94	-0.039183214
129	0xbbdee720	-0.0068024546
130	0xbc9ad060	-0.018898189
131	0x3db8eb1c	0.090292186
132	0x3d277518	0.040883154
133	0xbd6c20f0	-0.0576486
134	0xbd1f49a0	-0.038888574
135	0xbdcde166	-0.10052757
136	0xbce505a8	-0.027956799
137	0xbc4ab150	-0.012371376
138	0x3d29bb20	0.041438222
139	0x3c8f6778	0.017505392
140	0xbd747a88	-0.059687167
141	0xbda4a900	-0.08040047
142	0xbdb742a2	-0.08948256
143	0xbcddc650	-0.027072102
144	0x3d94bd0c	0.0726262
145	0xbc40c910	-0.011766687
146	0xbdb0c282	-0.086308494
147	0x3daf77b6	0.08567755
148	0x3d18f5f0	0.03734392
149	0x3de51cdc	0.11187145
150	0xbd8beba4	-0.06832054
151	0x3c05a5c0	0.008157194
152	0xbd848cd6	-0.06472175
153	0x3dd53868	0.10411149
154	0xbd6385c4	-0.05554749
155	0xbcbcc9f8	-0.023045525
156	0xbdaca696	-0.08430211
157	0x3d76c7c8	0.06024912
158	0x3cdd2878	0.026996836
159	0xbbebd5e0	-0.0071971267
160	0xbbd054c0	-0.0063577592
161	0x3daf8df0	0.08571994
162	0xbd5343ac	-0.05157821
163	0xbc9f1028	-0.019416884
164	0x3d39af30	0.045333087
165	0x3cb2f330	0.021844476
166	0xbd644fd0	-0.055740178
167	0xbbf9c380	-0.0076221824
168	0xbd4ada9c	-0.04952489
169	0x3cd7bb28	0.02633436
170	0x3d7a0bf8	0.06104657
171	0x3dc1a730	0.094557166
172	0x3daf3de4	0.085567266
173	0x3c68ce10	0.014209285
174	0xbc77b880	-0.015119672
175	0x3c3a8960	0.011385292
176	0x3d6611b8	0.05616924
177	0xbc663f80	-0.0140532255
178	0x3d162c04	0.03666307
179	0xbdf00806	-0.1172028
180	0x3d091f60	0.033477187
181	0xbc4148a0	-0.0117971
182	0xbdc034be	-0.0938506
183	0x3bc04120	0.0058671385
184	0x3dcb720a	0.099338606
185	0x3d2a142c	0.041523144
186	0xbcccaa88	-0.02498366
187	0x3df9d5d2	0.12198986
188	0x3dd51050	0.10403502
189	0xbd320660	-0.04346311
190	0x3d7f294c	0.062295243
191	0xbd547ebc	-0.051878676
192	0xbdefb67e	-0.117047295
193	0xbd88878e	-0.0666648
194	0xbd72e400	-0.05929947
195	0x3a00d700	0.000491485
196	0xbcca18d0	-0.024670035
197	0x3da1d77e	0.0790243
198	0xbd53592c	-0.051598713
199	0x3c1f34d0	0.009717181
200	0xbdeb64f0	-0.11493862
201	0x3d0c98f4	0.034325555
202	0x3d565ed8	0.052336544
203	0x3dddbada	0.10826655
204	0xbdeafd9a	-0.11474152
205	0xbd9b6506	-0.07587628
206	0x3dbb7bb2	0.091544524
207	0xbc9cc9a0	-0.019139111
208	0x3c854d48	0.016272202
209	0xbd8b69d2	-0.06807293
210	0x3d32c3f0	0.04364389
211	0x3d3d2b3c	0.04618381
212	0xbdac3022	-0.08407618
213	0x3dd07384	0.10178283
214	0xbd587ac0	-0.05285144
215	0xbdc831ea	-0.09775145
216	0x3db788c4	0.08961633
217	0xbd9c8866	-0.076432034
218	0x3d49f794	0.049308375
219	0xbd486af4	-0.048930123
220	0xba4d6300	-0.00078348815
221	0xbdd97d48	-0.106195986
222	0x3d5983a8	0.053104073
223	0x3ddd4bda	0.10805483
224	0xbdf9e9b8	-0.122027814
225	0xbd7c90d8	-0.06166157
226	0x3dc5dcb8	0.096612394
227	0xbd442664	-0.047888175
228	0xbc2320e0	-0.0099565685
229	0xbab26f00	-0.0013613403
230	0xbd6d510c	-0.05793862
231	0x3b048b40	0.00202246
232	0x3dbbd55e	0.09171556
233	0x3cd8a898	0.02644758
234	0xbda933d4	-0.082618386
235	0xbce3e0d8	-0.027817175
236	0xbcc04860	-0.023472011
237	0x3d675d50	0.056485474
238	0xbd9b98c6	-0.075974986
239	0xbd6404a4	-0.05566849
240	0xbd469554	-0.048482254
241	0x3d84dbc8	0.064872324
242	0x3de69c9a	0.11260338
243	0xbdddf29a	-0.10837288
244	0x3d8d23ca	0.06891592
245	0xbdc92028	-0.098205864
246	0x3ccf1180	0.0252769
247	0x3d9ca858	0.076492965
248	0x3dfed0ea	0.12442191
249	0xbd2c5a88	-0.042078525
250	0xbdf7d0c0	-0.12100363
251	0x3d82859a	0.06373139
252	0x3d0c0ec8	0.034193784
253	0xbd344f74	-0.044021085
254	0xbdeb083c	-0.1147618
255	0x3cf8be00	0.030364037

fc.weight f4 [1, 64]
0	0x3d8849c6	0.06654696
1	0x3d661818	0.05617532
2	0xbdbb18a6	-0.09135561
3	0x3ddd46f2	0.10804547
4	0x3b988bc0	0.0046553314
5	0x3b9f1720	0.0048550516
6	0xbd86ff3c	-0.06591651
7	0xbde04cbe	-0.109521374
8	0xbd8c633c	-0.06854865
9	0xbdda0f5c	-0.10647461
10	0x3d7de640	0.06198716
11	0x3c4c8a40	0.012484133
12	0xbdd90658	-0.10596913
13	0xbd79c7dc	-0.060981616
14	0x3cdd0430	0.026979536
15	0xbdc70e4a	-0.09719522
16	0x3dc5e262	0.0966232
17	0xbdc0df4c	-0.094175905
18	0x3ded8492	0.115975514
19	0x3dea9856	0.11454837
20	0x3df5b680	0.119977
21	0x3dea8040	0.11450243
22	0xbda37010	-0.079803586
23	0xbd8c9efe	-0.06866263
24	0x3df2f56a	0.11863215
25	0xbd26322c	-0.04057519
26	0xbdc58abe	-0.096456036
27	0xbd6cfec4	-0.05786015
28	0xbdfd3532	-0.12363662
29	0x3d1deea8	0.03855768
30	0x3d97dafa	0.07414813
31	0x3ddb05c8	0.10694462
32	0xbcf1b220	-0.029503882
33	0xbca501f0	-0.020142525
34	0xbdec6538	-0.115427434
35	0xbdc2f83c	-0.09520003
36	0x3d458378	0.04822108
37	0x3d0de650	0.03464347
38	0x3d778f7c	0.06043957
39	0xbd883f40	-0.06652689
40	0xbdc2d074	-0.095124155
41	0xbdfe870e	-0.124281034
42	0xbb0fbfc0	-0.002193436
43	0xbd9dafa8	-0.076995194
44	0x3d086eb0	0.033308685
45	0x3bdab4c0	0.006674379
46	0xbd097170	-0.033555448
47	0xbdc618b0	-0.096726775
48	0x3daf949c	0.08573267
49	0xbdda9986	-0.106738135
50	0xbcc35f20	-0.02384907
51	0x3dc008f8	0.09376711
52	0x3ddc23f8	0.10749048
53	0xbc0ae160	-0.008476585
54	0xbc7d4c70	-0.015460119
55	0xbdf96bd2	-0.12178768
56	0xbd462c64	-0.048382178
57	0x3db4fb9c	0.08837053
58	0xbc728590	-0.014802352
59	0x3d514dc4	0.051099554
60	0xbdaf8aba	-0.08571382
61	0x3c051670	0.008123025
62	0xbd359cc8	-0.04433897
63	0x3dd9e8d2	0.1064011
