models/global_lstm_state_problema1.pth (torch, 96894 bytes, 8 tensors)

store_emb.weight f4 [25, 4]
0	0x3e09f28c	0.1347143
1	0x3ed66e7a	0.41881162
2	0x3f5adc52	0.8549243
3	0xc0655095	-3.5830433
4	0x3fdfceb6	1.7484958
5	0x3f214630	0.6299772
6	0x3eff8e84	0.49913418
7	0xbe7e6b50	-0.24845624
8	0xc0600722	-3.5004354
9	0x4034a253	2.8224075
10	0x3edac281	0.4272652
11	0xbf0dade8	-0.55343485
12	0x3f321ea3	0.69578
13	0xbf80ade6	-1.005307
14	0x3cbd3918	0.023098513
15	0x3fdfe0c2	1.7490466
16	0xc08b27f3	-4.3486266
17	0x40a76086	5.2305326
18	0xbf959235	-1.1685244
19	0xc02734e3	-2.612603
20	0x3fcdf477	1.609023
21	0x3fd02413	1.6261009
22	0xc033390e	-2.8003573
23	0xbf8ea7b4	-1.1144929
24	0x3f2a8a69	0.6661745
25	0x3fddeb62	1.7337458
26	0x406aca32	3.668591
27	0xc017f066	-2.3740478
28	0xbfb368b0	-1.4016323
29	0x4080ef3e	4.0292044
30	0x3e2416d7	0.16024338
31	0xbeb1b8f8	-0.34711432
32	0xc081d071	-4.0566945
33	0x404fe701	3.2484744
34	0x3f097b9c	0.5370424
35	0x3e0d1bd8	0.13780153
36	0x3fe40d6d	1.7816597
37	0xc070f84c	-3.7651548
38	0xc02fec9a	-2.748816
39	0x3f3f8d97	0.74825424
40	0xc02ba7a5	-2.6821072
41	0x3ee0a17a	0.43873197
42	0xbfc761c9	-1.5576717
43	0x3fc653ff	1.5494384
44	0xbd8ab863	-0.0677345
45	0x3ec38485	0.38187042
46	0xbfae5a6f	-1.3621348
47	0x408a2ba4	4.317827
48	0xbf8176bc	-1.011436
49	0xbfe96798	-1.8234739
50	0x4007d053	2.12209
51	0xbe907df2	-0.2822109
52	0xbf0476aa	-0.51743567
53	0xbfb96340	-1.4483414
54	0xbe95e8d0	-0.29279184
55	0xbfc15f4f	-1.5107211
56	0xc06a8c5c	-3.6648169
57	0x3fbf47fc	1.4943843
58	0xc013271f	-2.2992628
59	0xc0319cd3	-2.7751968
60	0xbf469d51	-0.77583796
61	0x3fbe3320	1.4859352
62	0x408b278d	4.348578
63	0xbfb76816	-1.432864
64	0xbe068911	-0.13138224
65	0x3ee87413	0.45401058
66	0x40695b49	3.6461966
67	0x3f101f22	0.56297505
68	0x3f8231cb	1.0171446
69	0x3fbcc4cb	1.4747556
70	0xbf3b7947	-0.7323193
71	0x3edd6ff1	0.43249467
72	0xbf50bff1	-0.8154288
73	0x3fd08009	1.6289073
74	0xbf249d47	-0.64302486
75	0xbde9f539	-0.11423726
76	0x3fc92966	1.5715759
77	0xbf9a26e7	-1.2043122
78	0x3c850b5d	0.01624077
79	0xbface298	-1.3506651
80	0xc03fdab4	-2.9977236
81	0x3fbe4f23	1.4867901
82	0xc01c3f7c	-2.4413748
83	0x40317135	2.7725346
84	0x3f126308	0.5718236
85	0x3fb9f436	1.4527652
86	0x3d9fde51	0.07806075
87	0xbf33500b	-0.7004401
88	0x3fe9a48f	1.8253344
89	0xbef03b41	-0.46920207
90	0xbfe25bae	-1.7684228
91	0xc03c08e1	-2.938042
92	0x3e9f645f	0.31131265
93	0x402d8f6a	2.7118783
94	0x3e945e81	0.2897835
95	0xbf562073	-0.83643264
96	0x3f02f9fd	0.511627
97	0x4075b86b	3.839381
98	0x3f742d81	0.95381933
99	0xbf28f57c	-0.6599958

dept_emb.weight f4 [80, 8]
0	0x3f3a8143	0.7285349
1	0x3fbdc953	1.4827064
2	0x3f647a24	0.8924887
3	0x40189cdb	2.3845737
4	0xbe9c1230	-0.30482626
5	0xc068ed92	-3.6395001
6	0x4039fa11	2.9058878
7	0x3fc9a4e7	1.5753449
8	0x3f15fc75	0.58588344
9	0x3f0cb818	0.54968405
10	0x4099a786	4.8016996
11	0x40141793	2.3139389
12	0xc055f672	-3.3431668
13	0xbfb2c890	-1.3967457
14	0x3f9a2e78	1.2045431
15	0xc016ef67	-2.358362
16	0x3f185d40	0.5951729
17	0x3f2e4bde	0.68084514
18	0x4000d920	2.0132523
19	0xc06247e1	-3.5356371
20	0xc0173f10	-2.363224
21	0xc02b54be	-2.6770473
22	0xbf629b7a	-0.8851849
23	0xbef7d3e0	-0.48403835
24	0x40120420	2.2815018
25	0xbe2c322d	-0.16816016
26	0x40970296	4.7190657
27	0x402e01f3	2.718869
28	0x3fab24ea	1.337064
29	0x3ef32278	0.47487235
30	0x40621bb4	3.5329409
31	0xc0421779	-3.0326827
32	0x3b776c41	0.0037753733
33	0x3fc4113a	1.5317757
34	0x3fede500	1.858551
35	0x3f9d7ed4	1.230433
36	0xbfd98986	-1.6995094
37	0xbf2e6459	-0.6812187
38	0x40a386b1	5.110192
39	0x3f96a868	1.1770144
40	0xc02ebaea	-2.7301583
41	0xbf4f5eff	-0.8100433
42	0x3f8533e3	1.040646
43	0xc0091e6e	-2.1424823
44	0x4083a355	4.113688
45	0xbfdfb58b	-1.7477278
46	0x3f1854ae	0.5950421
47	0x3f7827a0	0.9693546
48	0xbfc1c4cb	-1.5138181
49	0x3f638e44	0.88888955
50	0x40668697	3.6019647
51	0x3f74786f	0.9549627
52	0xbff41721	-1.9069558
53	0x3ef19e58	0.4719112
54	0x403cdbd1	2.9509165
55	0x3fdf3c2f	1.7440242
56	0x3ffee5b2	1.9913847
57	0xc0318e2c	-2.7743025
58	0x40a3952f	5.111961
59	0x4048fd81	3.1404727
60	0xbcabbfbf	-0.020965455
61	0x3eb75c1a	0.35812455
62	0x401f2587	2.4866655
63	0xbf8c2e83	-1.0951694
64	0xc091d5f5	-4.557368
65	0x3f3738d9	0.7157112
66	0x3ffa167c	1.9538112
67	0x401b00fc	2.421935
68	0xbfdc7a41	-1.7224809
69	0xc031ce4d	-2.7782166
70	0xbf8f5501	-1.1197816
71	0xc03a3db0	-2.910015
72	0xbfdb56a3	-1.7135814
73	0xc09553d8	-4.666485
74	0x400edd89	2.2322714
75	0x3f8dba60	1.1072502
76	0xbeba081d	-0.36334315
77	0x3f1b4dca	0.6066557
78	0x401d0978	2.453703
79	0xc05636a4	-3.347085
80	0xc01c1f3e	-2.4394069
81	0xbf70adfb	-0.94015473
82	0x40d6a1f9	6.707272
83	0x400048d9	2.0044463
84	0x3f920fd8	1.1411085
85	0x40adc1f2	5.429925
86	0x3ef78c22	0.483491
87	0xc04078a8	-3.0073643
88	0x40b246cd	5.5711427
89	0x4126a080	10.414185
90	0x40479c97	3.1189325
91	0x404ebff0	3.230465
92	0xc093c7a9	-4.6181226
93	0x40a9012e	5.281394
94	0xc0bee0be	-5.9649343
95	0x40c3e823	6.122087
96	0x4045208d	3.0801117
97	0x3f062c6e	0.52411544
98	0x40a9b061	5.3027806
99	0x402c0ad7	2.6881616
100	0x3c65cbb4	0.014025617
101	0xbfa52f97	-1.2905148
102	0xbfe49b4c	-1.7859893
103	0xc0921af9	-4.5657926
104	0x3f18f996	0.5975584
105	0xbf139d6c	-0.5766208
106	0x4038c4e2	2.8870168
107	0xbfdd1074	-1.7270646
108	0xbfd57214	-1.6675439
109	0xc00c75de	-2.194694
110	0x4011a89e	2.2759166
111	0x3fd512d2	1.6646369
112	0xbfb5426c	-1.4160895
113	0xbf51a8db	-0.8189828
114	0x3e99c405	0.30032364
115	0xbe8a8c65	-0.27060238
116	0xc0d40a6b	-6.6262717
117	0x3f2c92b3	0.67411345
118	0xc04461a9	-3.0684607
119	0xbf4a4b57	-0.7902121
120	0x3fca86d7	1.58224
121	0xbfe75cae	-1.8075159
122	0x405cdaad	3.450847
123	0xc0231b8b	-2.548556
124	0x3ee122e4	0.43971932
125	0xbffc4998	-1.9709959
126	0x3fe012cf	1.750574
127	0x3fec1474	1.8443742
128	0xc03b0347	-2.922075
129	0x3f80d6fd	1.0065609
130	0xbee259fb	-0.44209275
131	0x3db07aa3	0.08617141
132	0x3ff63835	1.9235903
133	0xc07275c5	-3.788438
134	0x409d974e	4.92472
135	0xbf6943a4	-0.91118836
136	0x3f5520f8	0.8325343
137	0x4043bb10	3.0582924
138	0x40568667	3.3519533
139	0xc0ebcb8b	-7.3685966
140	0x40ec9250	7.3928604
141	0x40333489	2.8000815
142	0x3fd05e20	1.6278725
143	0xc0ccdbce	-6.4018316
144	0x3ee13c14	0.43991148
145	0x40009a58	2.0094204
146	0x3f84978b	1.0358747
147	0xbf1aebff	-0.6051635
148	0x4036fc4d	2.8591492
149	0x3fe2703b	1.76905
150	0xc046153c	-3.095046
151	0xc04106c1	-3.0160372
152	0x3f0cf01a	0.55053866
153	0xc00b5ae4	-2.1774225
154	0x40fb802d	7.8593965
155	0xc0443d61	-3.0662463
156	0x40bf9a20	5.987564
157	0x40cfb442	6.490754
158	0x402a3d9a	2.6600099
159	0x3f4ab542	0.7918283
160	0x3fc65801	1.5495607
161	0xbfa60c8d	-1.297258
162	0x4026c3c2	2.605698
163	0xc039efe6	-2.9052672
164	0x3e9e9450	0.30972528
165	0xc011beff	-2.2772825
166	0x3fd1c6be	1.6388776
167	0x3fe0f18b	1.7573713
168	0xbf7e0a71	-0.9923468
169	0x3fd90755	1.6955363
170	0x40569a7c	3.353179
171	0x3ef819c3	0.48457155
172	0xc0151475	-2.3293736
173	0xbfe4838c	-1.7852645
174	0x3e9c4b8c	0.30526388
175	0x3daa5e17	0.083187275
176	0x3f61c4b3	0.88190764
177	0xbe6b55b4	-0.22981912
178	0x405971bb	3.3975666
179	0xc0993a76	-4.7883863
180	0x3f48a6b6	0.7837938
181	0xbf7fbbc0	-0.9989586
182	0x3de8c791	0.11366189
183	0x3fe841de	1.8145101
184	0xbf85eca9	-1.0462848
185	0x4076c4bd	3.855758
186	0x40670782	3.6098332
187	0xbf0dc17a	-0.55373347
188	0x3f522803	0.82092303
189	0x3e5ee56f	0.2176721
190	0xc045473e	-3.0824733
191	0xbfb4e4cf	-1.4132327
192	0x3e993cb6	0.2992913
193	0x40443cbb	3.0662067
194	0x3fad5f7a	1.3544762
195	0xc03c2bec	-2.9401808
196	0x3ec491d3	0.38392505
197	0xbfc135a0	-1.509449
198	0xbe0afbca	-0.13572612
199	0x3e764c16	0.24052462
200	0x3c919fe6	0.01777644
201	0x401ec593	2.480809
202	0xc013973f	-2.3061063
203	0xc090d482	-4.525941
204	0x40916d32	4.5445795
205	0x40536d89	3.3035605
206	0x4032a162	2.7911
207	0xc0093246	-2.1436934
208	0x407fb5f6	3.995481
209	0x40d4e719	6.65321
210	0x3f822436	1.0167301
211	0xc1277a0c	-10.467297
212	0x40c33b0a	6.100957
213	0x40fa5026	7.8222837
214	0x4002775e	2.0385356
215	0xc08726d1	-4.2234883
216	0x3fcf08af	1.6174525
217	0x3fff9931	1.9968625
218	0x404e95e3	3.2278984
219	0xc01b735b	-2.4289157
220	0x4059e5fd	3.4046624
221	0x3ee86894	0.45392287
222	0x3de4d69a	0.111737445
223	0x3f6c0e8f	0.92209715
224	0x4041a3f6	3.0256324
225	0x406d8808	3.7114277
226	0x402ccad9	2.6998808
227	0xc0377cbd	-2.8669884
228	0x4096dfe8	4.7148323
229	0xc0833bae	-4.101035
230	0xc0976ec9	-4.7322736
231	0xc0b7d398	-5.7445793
232	0x4014d1b2	2.3252988
233	0x4010f6cb	2.265063
234	0x40ab1547	5.3463473
235	0xc008ce8c	-2.1376066
236	0x40ff1d12	7.9722986
237	0xc0109c84	-2.259553
238	0xc0e3d55c	-7.119795
239	0x3ee99984	0.45624936
240	0xbfd52955	-1.6653239
241	0xc0020b76	-2.0319495
242	0x3fed81d9	1.8555251
243	0xbf6850fc	-0.9074857
244	0x3ffba674	1.9660172
245	0xc05383a1	-3.304909
246	0x3ef4933d	0.47768584
247	0x4014f9ea	2.3277535
248	0xbf301d8f	-0.687951
249	0x40368068	2.8515873
250	0x405b372d	3.4252427
251	0xbd83d97b	-0.064379655
252	0x407b93ac	3.9308882
253	0x3ffa3155	1.9546305
254	0xbfdb02fb	-1.7110285
255	0x3f320897	0.6954436

type_emb.weight f4 [2, 2]
0	0xc026ac40	-2.6042633
1	0x3f70e91d	0.941057
2	0xbf992845	-1.1965414
3	0xbf1f680b	-0.6226813

lstm.weight_ih_l0 f4 [256, 22]
0	0x3ec33ddc	0.38133132
1	0xbfa718a8	-1.30544
2	0x3f086847	0.53284115
3	0x3f10c04b	0.56543416
4	0x3e4e42a4	0.20142609
5	0xbfad5d0c	-1.3544021
6	0xbf8826ec	-1.0636878
7	0x3fe0207b	1.7509912
8	0x40230eab	2.5477703
9	0x3fc345dd	1.5255696
10	0xc099987e	-4.799865
11	0x3f0d9bee	0.55316055
12	0x3fc88187	1.5664529
13	0xbf22b5c2	-0.6355859
14	0xbfba3174	-1.4546342
15	0xc1060936	-8.377249
16	0xbd2d3d12	-0.04229457
17	0x40331fe4	2.7988214
18	0xc0801f9f	-4.00386
19	0xc098ac6f	-4.771049
20	0xc09dfe63	-4.937303
21	0x410c3022	8.761751
22	0xc00c5999	-2.1929686
23	0xc0b45110	-5.6348953
24	0x408704c8	4.2193336
25	0x3fd08861	1.629162
26	0xc0255a86	-2.58365
27	0xc058a1e3	-3.3848808
28	0x3f0a2105	0.53956634
29	0x40ed571c	7.4168835
30	0xc053aae3	-3.307305
31	0x3efeaaab	0.49739584
32	0xbf0870b0	-0.5329695
33	0xc01096a3	-2.2591941
34	0x402334c3	2.5500953
35	0xbfa2ac71	-1.2708875
36	0xc098e4e8	-4.7779427
37	0x3faa484e	1.3303316
38	0xbe115acb	-0.14194791
39	0xbe66e4a8	-0.22548163
40	0xbe914a0e	-0.28376812
41	0x3e04e0d1	0.12976386
42	0x3be5ab20	0.007008925
43	0xbfd9b80f	-1.7009295
44	0x3fae2623	1.3605388
45	0xc019b9eb	-2.4019725
46	0x3ebc663f	0.36796758
47	0x3e74c99f	0.23905037
48	0x400af66c	2.1712904
49	0x4031618c	2.7715788
50	0x3fa9c92e	1.326452
51	0x4039529b	2.8956668
52	0xc0b02c3d	-5.5054
53	0xbdf758fd	-0.1207752
54	0x404ae995	3.1705067
55	0x3d9a5192	0.075350896
56	0xbf853cb1	-1.0409147
57	0xc0cc47b7	-6.3837543
58	0xbee7ce44	-0.45274556
59	0xbe962773	-0.29326972
60	0x3f81f8fd	1.015411
61	0xbf28475d	-0.6573389
62	0x3ee2ab71	0.44271424
63	0x3e8e8c75	0.27841535
64	0x3ed8586a	0.42254955
65	0x403c5d10	2.94318
66	0x404dc9cf	3.2154424
67	0x3f8f9645	1.1217734
68	0x40a29934	5.0812016
69	0xc08cdb6e	-4.401786
70	0x3e3e2cdf	0.18571804
71	0x4013a957	2.3072107
72	0x3f986ed5	1.1908823
73	0xbfb312bf	-1.3990096
74	0x3f1144a3	0.56745356
75	0xbfcddf06	-1.6083686
76	0xbec35f70	-0.3815875
77	0xc1066208	-8.398933
78	0x3fd44391	1.658312
79	0x3fb18a04	1.3870244
80	0xbfaf81ab	-1.3711447
81	0x402e4d40	2.723465
82	0xbfa7245c	-1.3057971
83	0x4011d698	2.2787228
84	0xbfc8ea24	-1.5696454
85	0xbfb24198	-1.3926268
86	0xbfb19316	-1.3873012
87	0x3f988ffd	1.1918942
88	0xbffd886f	-1.9807261
89	0xbfc94c5d	-1.5726429
90	0x408acbc9	4.337376
91	0xbfc69d22	-1.5516703
92	0xbfc225ab	-1.5167745
93	0xc055a493	-3.3381698
94	0xbfb44277	-1.4082783
95	0x3d21d2a9	0.03950754
96	0xc030782e	-2.7573352
97	0xbc3cf0ff	-0.011532067
98	0xc05ad801	-3.4194338
99	0x406d7c9d	3.7107308
100	0x40230358	2.547079
101	0x4040902d	3.0087998
102	0x404c00d8	3.1875515
103	0xc073fe97	-3.812414
104	0x3fa7cbb4	1.310904
105	0x4087c8d4	4.243265
106	0x3e36283f	0.1778879
107	0xbf8c159c	-1.0944095
108	0xbf87962a	-1.0592701
109	0xc0412bdd	-3.0183022
110	0x3fe959dd	1.8230549
111	0xbfa1875d	-1.2619435
112	0xc0553032	-3.3310666
113	0x40355320	2.8331985
114	0xc0740a44	-3.8131266
115	0x3fda155d	1.703777
116	0x40b3124f	5.595985
117	0xc00b9d20	-2.1814651
118	0xc0a938bd	-5.288176
119	0xbf2472b0	-0.642375
120	0x3ffd485a	1.9787705
121	0x3fb38e45	1.4027792
122	0x400b16b3	2.1732605
123	0xc11514bf	-9.317565
124	0xc0a9b04a	-5.3027697
125	0x3f05af17	0.5222029
126	0xbf42a714	-0.7603619
127	0xbf47c69d	-0.78037435
128	0x3f4f75e0	0.8103924
129	0x396a978f	0.00022372439
130	0xbe1e8938	-0.15482032
131	0x3f554f2c	0.8332393
132	0xc04c6d96	-3.1941886
133	0xc0dd55fc	-6.916746
134	0x40cac8f0	6.3370285
135	0x3f72b0db	0.9480111
136	0xc0fd05b6	-7.906947
137	0xc0503674	-3.2533236
138	0xbed8060a	-0.42192107
139	0xbe7bfc70	-0.24608016
140	0xbfc212c3	-1.5161976
141	0xc02d0276	-2.7032752
142	0x406abdf3	3.6678436
143	0x3fd526f6	1.6652515
144	0xbfc242cc	-1.5176635
145	0x3f1cec7d	0.6129835
146	0xc0ab8b08	-5.3607216
147	0x3fa07e11	1.2538472
148	0xbfd1f4cf	-1.6402835
149	0x3efc6675	0.4929692
150	0xbecf00fb	-0.40430436
151	0x3ef30aeb	0.47469267
152	0x3ede6e57	0.43443558
153	0xc01a269b	-2.4086063
154	0xbf960077	-1.1718892
155	0x40432ea7	3.0497224
156	0xbffbbcab	-1.9666952
157	0x3f5d17b3	0.8636429
158	0x40909ae1	4.518906
159	0x3f937517	1.1520108
160	0x3f1d4187	0.6142811
161	0x40184589	2.379244
162	0xbe49c7d3	-0.19705133
163	0x3fdef28a	1.7417767
164	0xbf17ab48	-0.5924573
165	0x3eeb6398	0.45974422
166	0xc0926c9f	-4.5757594
167	0x3f817724	1.0114484
168	0x3f12ec09	0.5739141
169	0x3f50d2f5	0.81571895
170	0x3f1e2e81	0.6178971
171	0xbfb6d97d	-1.4285122
172	0xbf1197cc	-0.5687225
173	0x3d5e150c	0.05421929
174	0xbd98bd7e	-0.07458018
175	0xc02107d6	-2.5161033
176	0x3fc3ca52	1.5296118
177	0xbfc2b24e	-1.5210664
178	0xbf3698a5	-0.7132667
179	0x4093ca6f	4.618461
180	0x3f5fad59	0.8737388
181	0x3f1df5e4	0.61703324
182	0x4009e2f7	2.1544778
183	0x40620c01	3.5319827
184	0x3f7f7b43	0.9979746
185	0xc0312610	-2.7679482
186	0x403d9df5	2.962766
187	0xbfb87695	-1.4411188
188	0x400d1025	2.2041104
189	0xc0fee3e5	-7.965319
190	0x40a080c9	5.015721
191	0xbfc7f1b9	-1.5620643
192	0xbd60c38d	-0.05487399
193	0xbf9633a0	-1.1734505
194	0x3f2854e0	0.6575451
195	0x3e48ac44	0.19596964
196	0x3e2a7a90	0.16648316
197	0xc05b9551	-3.4309886
198	0xbecd9a10	-0.40156603
199	0x3f066fea	0.5251452
200	0x3fa698b5	1.3015352
201	0xbda693dd	-0.081336714
202	0xc01ab738	-2.4174328
203	0xc09af69f	-4.842605
204	0xbeed1b56	-0.46309918
205	0x3fc353cc	1.5259948
206	0xbf6eb169	-0.93239456
207	0xbfed4d88	-1.8539286
208	0x406b9562	3.6809926
209	0x4043613c	3.0528097
210	0xc00e55ab	-2.2239788
211	0xbeec2381	-0.46120837
212	0xc025a581	-2.5882266
213	0x40a51435	5.1587167
214	0xbf8559d3	-1.0418037
215	0xbfa8bec2	-1.3183215
216	0x3ffcd957	1.9753827
217	0x3ff0efe2	1.8823206
218	0x3fea9830	1.8327694
219	0x3f9c153c	1.219398
220	0x405977d8	3.3979397
221	0xc05a0ad0	-3.40691
222	0xc0dc0e5e	-6.876754
223	0xbfbc8578	-1.4728231
224	0x40be5cd7	5.948833
225	0xbf9a16c4	-1.2038198
226	0x4028af07	2.6356828
227	0x3f51b151	0.8191119
228	0xbfddc635	-1.7326113
229	0x3f17052c	0.58992267
230	0x3f02c519	0.51082
231	0xc0324cd8	-2.7859402
232	0x3e02abec	0.12760895
233	0xbfb28ff6	-1.3950183
234	0x3f2bc8b1	0.67103106
235	0x406b6b46	3.6784225
236	0x3f025697	0.50913376
237	0xbfa45195	-1.2837397
238	0xbebaf758	-0.36516833
239	0x3ecc6d10	0.39926958
240	0x3ed509c7	0.41609022
241	0x3f867e1b	1.0507234
242	0xc0341fcd	-2.814441
243	0x3ee8decc	0.4548248
244	0x40365eb2	2.8495297
245	0x3f91b8a6	1.1384475
246	0x401082b0	2.2579765
247	0x3f915fac	1.1357322
248	0xbfe0e946	-1.7571189
249	0x405d218d	3.4551728
250	0xc00c7e70	-2.1952171
251	0x3fc5615c	1.5420337
252	0x408b338e	4.3500433
253	0xc01dbd3d	-2.4646752
254	0xbf3aa44d	-0.72906953
255	0xc0808899	-4.0166745

lstm.weight_hh_l0 f4 [256, 64]
0	0xc0817f52	-4.046792
1	0x40654c3a	3.5827775
2	0xbf9a7c24	-1.2069135
3	0xc02d541e	-2.708259
4	0xc09afbbc	-4.8432293
5	0xc026d4bc	-2.6067343
6	0xbfb82151	-1.4385167
7	0x40222f80	2.5341492
8	0x400d1780	2.2045593
9	0x3fdcd336	1.7251956
10	0xc0272d53	-2.6121414
11	0xc0193354	-2.3937578
12	0xc00301a8	-2.046976
13	0x407d7e8f	3.9608495
14	0xbfa595fc	-1.2936397
15	0xc029f40b	-2.6555202
16	0xc0945281	-4.6350713
17	0x4075ee81	3.8426821
18	0x3f560cdf	0.8361339
19	0x4043db5d	3.0602639
20	0xbf8fdd1f	-1.1239356
21	0x4002745e	2.0383525
22	0x3ff9c836	1.9514225
23	0xbc8756a0	-0.016520798
24	0xc0845891	-4.1358113
25	0x3fc2fce1	1.5233423
26	0xc08cc6e0	-4.3992767
27	0xc08de4ce	-4.4341803
28	0x3fe2b8a7	1.7712601
29	0x3f0e394d	0.55556184
30	0x3f4fba1d	0.8114336
31	0xbf006a4d	-0.501622
32	0xbfb1035e	-1.3829153
33	0x4009fca2	2.1560445
34	0xc0046902	-2.0689092
35	0xc0afc6c5	-5.493014
36	0x3fc03b53	1.5018104
37	0xc01df5d6	-2.4681296
38	0xbf5c389a	-0.8602387
39	0xc09d71d3	-4.9201446
40	0x3fb9801d	1.4492222
41	0xbe89d8ee	-0.26923317
42	0x4035b0d9	2.838919
43	0x40a5b662	5.1785135
44	0xbf05bfa6	-0.5224556
45	0x3fbe59f5	1.4871203
46	0xc0ac9d1f	-5.39418
47	0x411db0b2	9.8556385
48	0xc0fb6f76	-7.857356
49	0x408c3866	4.3818846
50	0xbeb751ac	-0.35804498
51	0xbf9c2c2a	-1.2200978
52	0xc0204b58	-2.5045986
53	0xbea670d9	-0.3250797
54	0x3d813082	0.0630808
55	0xc1007e76	-8.030874
56	0xc0a16044	-5.043001
57	0x407c5644	3.9427652
58	0xc009cac3	-2.1530006
59	0xc08bf77f	-4.373962
60	0xbfd89c94	-1.6922784
61	0x407d7880	3.9604797
62	0x40085801	2.1303713
63	0x3f82a299	1.0205871
64	0xbf778c20	-0.9669819
65	0x408a8a63	4.329393
66	0xbfc23592	-1.5172598
67	0x3d883c75	0.06652156
68	0xc032da63	-2.7945793
69	0xc0777fdd	-3.8671792
70	0x3fd9439a	1.6973755
71	0xc0339806	-2.8061538
72	0x3dd21cee	0.10259424
73	0xbf6e0bd6	-0.9298681
74	0x40086164	2.1309443
75	0x3fe69785	1.801499
76	0x3f5770e3	0.84156626
77	0x4059a376	3.4006019
78	0x3e8ed77b	0.27898774
79	0x3de8b2a9	0.11362202
80	0xc0231f99	-2.5488036
81	0xc0d27dbb	-6.577848
82	0xc07dc911	-3.9653971
83	0xbff5ff18	-1.9218473
84	0xc015960a	-2.3372827
85	0x404547f9	3.0825179
86	0x3f9766c3	1.1828235
87	0x3fb00b6b	1.3753484
88	0x3d66206f	0.056183275
89	0xc006b1b8	-2.104597
90	0xc11d1e8c	-9.819958
91	0xbf23de40	-0.64011
92	0xbdd4791a	-0.10374661
93	0xbf91f4a3	-1.1402782
94	0x40218638	2.523817
95	0x400936b4	2.1439638
96	0xbfcc8357	-1.5977582
97	0xc0b909ab	-5.78243
98	0xbf5944ac	-0.8487041
99	0xbf8f8540	-1.121254
100	0x3f6cb500	0.92463684
101	0xc0316e8f	-2.772373
102	0xbedc31ac	-0.43006647
103	0x3fe12620	1.758976
104	0xbfc7f283	-1.5620884
105	0xbe57bc1f	-0.21067856
106	0x3ff53f6a	1.9159977
107	0x4031751b	2.7727726
108	0xbf4178a0	-0.75574684
109	0xbea21fb6	-0.3166482
110	0x3e895f30	0.26830435
111	0x41732b8b	15.198131
112	0xbe85b7d7	-0.2611682
113	0x3fefb921	1.8728372
114	0x400d3bc6	2.2067733
115	0xbfa09164	-1.254437
116	0x3f93a924	1.1535993
117	0xbfd4de9e	-1.6630437
118	0x3fdee3d7	1.7413281
119	0xc0a3efd8	-5.123028
120	0x3f08c66c	0.5342777
121	0xc0e62c9a	-7.1929445
122	0xbe23a096	-0.15979227
123	0xbea8ff7d	-0.33007422
124	0x409ff368	4.9984627
125	0xbfbfddeb	-1.4989599
126	0x3f647359	0.89238507
127	0x405dc965	3.4654171
128	0xc06e747b	-3.7258594
129	0x40d1868a	6.547673
130	0x40c4e661	6.1531224
131	0xc0fd26ba	-7.9109774
132	0xbdd6a030	-0.10479772
133	0xc0d66d51	-6.7008443
134	0xbfb6c0dc	-1.4277606
135	0xbfcaac7c	-1.5833888
136	0xbee4f7e8	-0.44720387
137	0xc08b85bc	-4.360075
138	0x3ff2d003	1.896973
139	0x3fe6bd53	1.8026527
140	0xc01fba95	-2.495763
141	0xc02319d5	-2.5484517
142	0x40c3146e	6.096244
143	0x3f33b403	0.7019655
144	0xc0219c44	-2.5251627
145	0xc02410b6	-2.56352
146	0xbf5bd4c7	-0.8587155
147	0xbf969c08	-1.1766367
148	0x3feca181	1.8486787
149	0x40053268	2.0812016
150	0x3eac49cd	0.33650056
151	0x401c86b7	2.4457223
152	0x3fc41f73	1.5322098
153	0x4074ee30	3.8270378
154	0x3f8ca65c	1.0988269
155	0xbfecc648	-1.8498011
156	0x40ed7d41	7.42154
157	0xc02dd0cb	-2.7158687
158	0x40f5e805	7.6845727
159	0x4029ffcd	2.6562378
160	0x3f45cba0	0.7726383
161	0x40d1809a	6.5469484
162	0x3ffc48fa	1.9709771
163	0xbcd34cdb	-0.025793483
164	0x4037e92a	2.8736062
165	0xbe732417	-0.23744236
166	0x3dbe2e24	0.092861444
167	0x3dd875d9	0.10569353
168	0xc0cc1a7e	-6.378234
169	0x3eced8db	0.40399823
170	0x40cdd309	6.432011
171	0xc0175b5b	-2.364951
172	0xbf3ed8df	-0.7454967
173	0x3fa59a80	1.2937775
174	0xbf690298	-0.9101958
175	0x3fe8d9e9	1.8191501
176	0x40c91889	6.284245
177	0x40d4d443	6.650911
178	0x407f9add	3.993827
179	0x40b17a56	5.5461836
180	0xbf7743a3	-0.9658758
181	0x40009aa5	2.0094388
182	0x3e80b3a5	0.25137058
183	0xbfea8589	-1.8322002
184	0xbf42a71d	-0.76036245
185	0xbfde0bbd	-1.7347332
186	0xc10c6ae8	-8.7761
187	0xc01d3cef	-2.456844
188	0x408b955a	4.3619814
189	0x3f3bf767	0.7342438
190	0xbe28b503	-0.164753
191	0x40a76fb1	5.232384
192	0xc0c5225c	-6.1604443
193	0x408bd4de	4.369735
194	0xbfe7cb4f	-1.810892
195	0xc030f63f	-2.7650297
196	0xbfb2b097	-1.3960141
197	0x3f825922	1.0183451
198	0x3a847e24	0.0010108394
199	0x3f577b5e	0.8417262
200	0x40ca24fc	6.3170147
201	0x40b39a3f	5.612579
202	0xbff6fa1a	-1.9295075
203	0xbfdf5182	-1.7446749
204	0x40bc7f51	5.8905416
205	0x4089b030	4.3027573
206	0xbe0ed510	-0.13948464
207	0xc10f4b19	-8.955834
208	0xc09f5fe4	-4.9804554
209	0xc07595ed	-3.8372757
210	0x3ff112bf	1.8833846
211	0x3f48cea3	0.784403
212	0x3fc83aa6	1.5642898
213	0x3d8d8a27	0.06911116
214	0x40334518	2.8010921
215	0xbebdcafa	-0.3706892
216	0xc02fcc35	-2.7468388
217	0x3debc8af	0.11512887
218	0xc0009c99	-2.009558
219	0xc0428d52	-3.0398755
220	0x4019b88c	2.4018888
221	0xbfa9cbff	-1.326538
222	0xc0196c6b	-2.3972423
223	0x3f224b2d	0.6339596
224	0x3e3762d6	0.17908797
225	0xbfeed333	-1.8658203
226	0xc001ff7a	-2.031218
227	0x3fd27255	1.6441141
228	0x3f2014e2	0.62531865
229	0x40daf250	6.842079
230	0x400fb848	2.2456226
231	0xbf4078e4	-0.75184464
232	0xc1176d39	-9.464166
233	0xc09a66c6	-4.8250456
234	0xc0015202	-2.0206304
235	0x403fdc5b	2.9978244
236	0x40717b83	3.7731636
237	0x400a3e6d	2.1600602
238	0xbfce2a8c	-1.6106734
239	0x402e565d	2.7240212
240	0x3fd91a65	1.696118
241	0xbee08cb4	-0.43857348
242	0x3f850bc1	1.0394212
243	0x40e20a1f	7.0637355
244	0xc05f8521	-3.4925005
245	0xbf820ffb	-1.0161127
246	0xc07087e8	-3.758295
247	0xc09766a1	-4.731278
248	0xc0075642	-2.1146398
249	0xc0170a1b	-2.3599918
250	0xc0878e11	-4.236092
251	0xbf1a30aa	-0.60230505
252	0xbe49b5d6	-0.19698271
253	0x409cc9b5	4.8996224
254	0x3f8f5bf9	1.1199943
255	0x3f8af50b	1.0856031

lstm.bias_ih_l0 f4 [256]
0	0xbf5bf972	-0.859275
1	0xbf8ed100	-1.1157532
2	0x40e0136f	7.0023723
3	0xc0025d59	-2.0369475
4	0xc0ad14d2	-5.4087915
5	0x4058f2e3	3.3898246
6	0x40261e6b	2.5956066
7	0x408cf783	4.405214
8	0x40aa58e0	5.323349
9	0x40b29bbd	5.581511
10	0x400a699a	2.1626954
11	0x40640e5d	3.5633767
12	0xbfdd2743	-1.7277607
13	0x40341afc	2.814147
14	0x4014bfc0	2.3242035
15	0x40b59a1c	5.675062
16	0x40611c1c	3.5173407
17	0x3e0d1b60	0.13779974
18	0xbf432700	-0.76231384
19	0x400536ea	2.0814767
20	0xc07a52fc	-3.911315
21	0xbde35882	-0.11100866
22	0xc02c375b	-2.6908786
23	0x3fdd198f	1.7273425
24	0xbfbef56f	-1.491865
25	0x3fe61d4a	1.7977688
26	0x40dfa318	6.988659
27	0xc01f0fd8	-2.485342
28	0x3fe0b4d0	1.755518
29	0x40964110	4.695442
30	0x3f02abb5	0.51043254
31	0x4093b4dd	4.615828
32	0x3f9e7cc3	1.2381824
33	0x3fe3294f	1.7746981
34	0x3f882711	1.0636922
35	0x401ac059	2.41799
36	0x401bc11c	2.4336615
37	0x3e8a873d	0.27056304
38	0x40da02c4	6.8128376
39	0x3fc583c3	1.5430835
40	0x3f2a7c27	0.6659569
41	0x40b7e036	5.7461195
42	0x3fdc1f20	1.7196999
43	0xbf72a7ce	-0.947873
44	0x3dd13789	0.102156706
45	0xbef9669e	-0.48711103
46	0xbed2dbf2	-0.4118343
47	0xc00aacf4	-2.1668062
48	0x3f82cf8b	1.0219587
49	0xbffebc46	-1.9901206
50	0xc048b38f	-3.1359594
51	0xc017f13d	-2.374099
52	0x40627af2	3.538754
53	0x408cf7af	4.405235
54	0x3f889a9e	1.0672185
55	0xc074666e	-3.8187518
56	0x3fa1c2a5	1.2637526
57	0x40978946	4.735507
58	0x408616e0	4.1902924
59	0x40a580a1	5.171952
60	0xbef780f1	-0.48340562
61	0xbf1f11e3	-0.6213667
62	0x4033d8a0	2.8100967
63	0x4082fd5b	4.093427
64	0xbfa8e7a5	-1.3195692
65	0x3f417d06	0.75581396
66	0x3f6404b5	0.8906968
67	0xc05c5a3a	-3.443007
68	0x3f2e407b	0.6806714
69	0xbda1f7c6	-0.07908587
70	0xbf445116	-0.7668623
71	0x406a0088	3.6562824
72	0x3f60add0	0.87765217
73	0x408480fd	4.1407456
74	0xbfbad7fb	-1.4597162
75	0x402c4b42	2.6920934
76	0x3ffbf034	1.9682679
77	0x3d91ab3f	0.07112741
78	0xc05f33dd	-3.4875405
79	0x401245e5	2.285516
80	0xbf662258	-0.89896154
81	0x4024b7b8	2.5737133
82	0xbe91b2c2	-0.28456694
83	0x3e73e3ec	0.23817414
84	0xc0215d7c	-2.5213308
85	0xbedca0db	-0.43091473
86	0xbe27e04f	-0.1639416
87	0x3dd2fd3e	0.10302208
88	0xbf5a0452	-0.8516284
89	0xc01ada61	-2.4195788
90	0x3f22ebc4	0.63641
91	0x3dc2651a	0.0949194
92	0x3fe226de	1.7668111
93	0x3ff3c302	1.9043887
94	0x3feb4bb7	1.8382481
95	0xbe5131f4	-0.20429212
96	0x3fd91e82	1.6962435
97	0x3e2e22b9	0.17005433
98	0x40346d08	2.8191547
99	0x3e921475	0.28531232
100	0xbfcb20a7	-1.586934
101	0xc0da73ec	-6.8266506
102	0xc0246d30	-2.5691643
103	0xbf0f5b78	-0.55998945
104	0xbca3ac96	-0.019979756
105	0x404dd5b1	3.2161677
106	0x3f96f9f5	1.1795031
107	0xbfaf8cbe	-1.3714826
108	0x40054173	2.0821197
109	0x3f9e52c4	1.2369008
110	0xbfc48251	-1.535227
111	0x402dfa46	2.7184005
112	0xc01cdcec	-2.450984
113	0x3f2ce571	0.675376
114	0xbfa7be0a	-1.310487
115	0xbe7664c1	-0.24061872
116	0x40007c25	2.0075772
117	0xbf20a7e5	-0.62756187
118	0xbfc2e99a	-1.522754
119	0x400c6253	2.1935012
120	0x4063ee9d	3.5614388
121	0xbfd64961	-1.6741143
122	0xbf8bae9d	-1.0912663
123	0x403d3667	2.9564455
124	0xbf8ba99a	-1.0911133
125	0xc04b14dc	-3.1731482
126	0x3f15c090	0.5849695
127	0xc01fe111	-2.498112
128	0xc083b066	-4.115283
129	0xc00385ff	-2.0550535
130	0xc0cb0f4b	-6.345617
131	0x404822be	3.1271205
132	0x3e23ffa3	0.16015486
133	0x409d54fa	4.916623
134	0xc02a11e7	-2.6573427
135	0x40749eb8	3.8221874
136	0x400a5b62	2.1618276
137	0x3f9183ce	1.1368349
138	0xc097ff92	-4.7499475
139	0x4020ec69	2.5144293
140	0xbea7789a	-0.327092
141	0x3fbf0087	1.4922036
142	0xc0464bcf	-3.098377
143	0xc064081a	-3.5629945
144	0xbfad88be	-1.3557355
145	0x40b9160c	5.7839413
146	0x4063f636	3.5619025
147	0x404bc56d	3.183925
148	0xc0bd2726	-5.911029
149	0xc0ad160b	-5.408941
150	0x400339ab	2.0503948
151	0xbfcaea58	-1.5852766
152	0xbff10753	-1.883036
153	0x3d3c6486	0.045994304
154	0xc047da23	-3.122689
155	0x3fa4c385	1.2872168
156	0xc006a3cf	-2.103748
157	0xc054d2d2	-3.3253675
158	0xbf57032c	-0.83989215
159	0xc1054b30	-8.330856
160	0xc0824574	-4.070978
161	0x4097ba9b	4.741529
162	0xbfff5a36	-1.9949405
163	0xc0a2c3ff	-5.0864253
164	0x410e5d4f	8.89778
165	0x401045c2	2.2542577
166	0xc0838cad	-4.1109223
167	0xc108279c	-8.50967
168	0x3fd05745	1.6276633
169	0x3f9ff883	1.2497715
170	0xbf59f939	-0.8514591
171	0x3f353b22	0.70793355
172	0x3fae2c8b	1.3607343
173	0x40c84c2c	6.2592983
174	0xc0bfed0f	-5.997688
175	0xc00426d0	-2.064869
176	0x4073acce	3.8074222
177	0x4078a845	3.8852704
178	0x40227d16	2.5388846
179	0xc01caa33	-2.4478881
180	0xc0e33b3f	-7.100982
181	0xc006d4a4	-2.1067286
182	0x4068668f	3.6312597
183	0x3e57c331	0.21070553
184	0xc0ba0d52	-5.814126
185	0x40445e7d	3.068267
186	0xc0a4f83a	-5.155301
187	0x4093f739	4.6239285
188	0x40305f9e	2.755836
189	0x409a81f7	4.828365
190	0xbf552edb	-0.8327462
191	0x40729ec8	3.7909412
192	0xbf9d739c	-1.2300906
193	0x3d59e5f8	0.05319783
194	0x405b6f4f	3.4286687
195	0xc0106ae3	-2.2565238
196	0xc00bea20	-2.1861649
197	0x3eb3baa9	0.35103348
198	0x4001d575	2.0286534
199	0x3f891dc1	1.0712205
200	0x403e21b2	2.9708066
201	0xc011e83a	-2.279799
202	0x40788508	3.8831196
203	0x3e645e52	0.22301605
204	0xc027af1e	-2.6200633
205	0xbddcb1fb	-0.107761346
206	0xc014ba31	-2.3238642
207	0xbf414d9f	-0.75509065
208	0x40747fce	3.8203006
209	0x400109be	2.0162196
210	0x4021b159	2.5264494
211	0x40873d1d	4.22621
212	0xc0859c3d	-4.175322
213	0x3fb050fd	1.3774716
214	0xbdeae90d	-0.11470232
215	0x406bd63c	3.6849508
216	0xbf454f4b	-0.77074116
217	0x403b08dc	2.9224157
218	0xc0b59dac	-5.675497
219	0x3e4e3505	0.20137413
220	0xbfd7ac4b	-1.6849455
221	0x3fc027a0	1.5012093
222	0x3e9d4fbe	0.307249
223	0x40a018d1	5.0030293
224	0x402846d3	2.6293228
225	0x407bec48	3.9362965
226	0x405d77cc	3.4604368
227	0x4099d485	4.8071923
228	0x3fd1a002	1.6376956
229	0x3fc97275	1.5738055
230	0x40c5ee89	6.185368
231	0x40d63010	6.693367
232	0xbf974db4	-1.1820588
233	0x4023ec10	2.561283
234	0xbfcf9036	-1.6215885
235	0xbe98166c	-0.29704607
236	0xc0547156	-3.3194175
237	0xc0458fd3	-3.0869033
238	0x40577d10	3.3670082
239	0xbf394e7b	-0.72385377
240	0x408d493d	4.41519
241	0x3f0f1017	0.55883926
242	0xc0120d89	-2.2820761
243	0xbfbad1c3	-1.4595264
244	0x408fed8c	4.4977474
245	0xbf8c29da	-1.0950272
246	0xbf51bc43	-0.8192789
247	0x40a0c2db	5.023786
248	0x4055c4e2	3.3401418
249	0x3ec96ba6	0.39339942
250	0xbf034d4f	-0.5128984
251	0x3fd0da26	1.6316574
252	0xbfee6425	-1.8624312
253	0xc06b2f35	-3.6747563
254	0xc01f2222	-2.4864583
255	0x406d9a82	3.7125554

lstm.bias_hh_l0 f4 [256]
0	0xbf71df7c	-0.94481635
1	0xbf85d8e8	-1.045682
2	0x40deaf11	6.9588704
3	0xc0069a24	-2.103158
4	0xc0ad2ada	-5.411481
5	0x4059a623	3.4007652
6	0x401f84d5	2.4924824
7	0x408ed283	4.463197
8	0x40ab6faa	5.357381
9	0x40b7a765	5.739184
10	0x40092d30	2.143383
11	0x406add95	3.6697743
12	0xbff15d8b	-1.8856672
13	0x402abe50	2.6678658
14	0x4019150a	2.3919091
15	0x40bca0a6	5.8946104
16	0x405ffe46	3.4998946
17	0x3debe16e	0.11517607
18	0xbf2a8638	-0.6661105
19	0x3ff0bad4	1.8807015
20	0xc06acc05	-3.6687024
21	0xbd6ce55a	-0.057835914
22	0xc02aea95	-2.6705678
23	0x3fe11f4d	1.7587677
24	0xbfb540bb	-1.4160379
25	0x3febd0ec	1.8423133
26	0x40dc7164	6.8888416
27	0xc01788dc	-2.3677282
28	0x3fcb9cb8	1.5907202
29	0x408f8066	4.4844236
30	0x3f060061	0.5234433
31	0x408ef179	4.4669766
32	0x3f978ec7	1.1840447
33	0x3ffeaad5	1.9895884
34	0x3f83fdbd	1.031181
35	0x401a4b7b	2.410857
36	0x40217694	2.5228624
37	0x3e6b6417	0.229874
38	0x40d7c82e	6.743186
39	0x3fbd0609	1.4767467
40	0x3f167a91	0.5878077
41	0x40b4d86c	5.6514187
42	0x3fe6998e	1.8015611
43	0xbf6f4aae	-0.9347333
44	0x3e1e9673	0.1548708
45	0xbf0de881	-0.554329
46	0xbee1bf38	-0.440912
47	0xc001a444	-2.025651
48	0x3f5a18cc	0.8519409
49	0xbffcfb96	-1.9764278
50	0xc0478d45	-3.1179974
51	0xc01e24b5	-2.4709904
52	0x406ab222	3.6671224
53	0x408a6701	4.3250737
54	0x3f8b733c	1.0894542
55	0xc07ada4c	-3.9195738
56	0x3fb447bb	1.408439
57	0x409abca6	4.8355284
58	0x4085665e	4.168746
59	0x40a5bf09	5.1795697
60	0xbf199fd6	-0.60009515
61	0xbf13e91e	-0.57777584
62	0x402bed8c	2.6863737
63	0x408416e5	4.1277947
64	0xbfab34b3	-1.3375458
65	0x3f6a20f8	0.91456556
66	0x3f7ba2cd	0.9829529
67	0xc0594688	-3.39493
68	0x3f5821bd	0.8442648
69	0xbe8e5ea5	-0.27806583
70	0xbf514c90	-0.8175745
71	0x4062a848	3.541521
72	0x3f847743	1.0348896
73	0x4080b7b8	4.0224266
74	0xbfc0a6e1	-1.5050927
75	0x401f0624	2.4847498
76	0x3ff47c1d	1.9100376
77	0xbd385b0f	-0.045008715
78	0xc06a5fe5	-3.662103
79	0x4019b057	2.401388
80	0xbf695562	-0.9114591
81	0x4023da42	2.5601964
82	0xbe919e31	-0.28441003
83	0x3ebcbd95	0.3686339
84	0xc0234354	-2.5509844
85	0xbe83dab3	-0.25752792
86	0xbdabd405	-0.08390049
87	0x3dfc1614	0.123088986
88	0xbf80fe9e	-1.0077703
89	0xc00f84a3	-2.2424705
90	0x3f424ebe	0.759014
91	0x3e8c2a1a	0.2737587
92	0x3fd069ce	1.6282289
93	0x3fe1c36c	1.7637763
94	0x3ffe1d8f	1.985277
95	0x3c77a741	0.01511556
96	0x3fdea1e8	1.739316
97	0x3db89a6d	0.090138294
98	0x402f4ba2	2.7389913
99	0x3d997a69	0.07494051
100	0xbfc5d39f	-1.5455207
101	0xc0dc6608	-6.887455
102	0xc01ee598	-2.4827633
103	0xbef6c5c0	-0.48197746
104	0xbdf19ff6	-0.11798088
105	0x40585c27	3.3806245
106	0x3f9e5899	1.2370788
107	0xbfac1060	-1.3442497
108	0x400eed9f	2.2332532
109	0x3fa5fbd0	1.2967472
110	0xbfc77aab	-1.558431
111	0x4026926c	2.602687
112	0xc021b810	-2.5268593
113	0x3f270e07	0.6525578
114	0xbf995bb6	-1.1981113
115	0xbea565e7	-0.32304308
116	0x4004f265	2.0772946
117	0xbf1e9766	-0.61949766
118	0xbfca8e26	-1.582463
119	0x400dc5e5	2.2152035
120	0x4066fc6b	3.6091564
121	0xbfd8c70b	-1.6935743
122	0xbf7e8567	-0.99422306
123	0x403c78c7	2.9448717
124	0xbf938200	-1.1524048
125	0xc04d4134	-3.2071047
126	0x3ecbf915	0.39838472
127	0xc011e2b5	-2.279462
128	0xc07f2063	-3.9863517
129	0xc00c11c6	-2.1885848
130	0xc0cb8d89	-6.3610272
131	0x4048947e	3.1340632
132	0x3e99a5e4	0.30009377
133	0x40975036	4.7285414
134	0xc02af20b	-2.6710231
135	0x406d0e72	3.7040067
136	0x40042695	2.0648549
137	0x3f75c67e	0.96006
138	0xc0922aee	-4.5677404
139	0x402e7f83	2.7265327
140	0xbe81b212	-0.2533117
141	0x3fc3be9d	1.5292546
142	0xc03c71e1	-2.9444506
143	0xc05f2372	-3.4865384
144	0xbfb34ed0	-1.4008427
145	0x40b2a38a	5.5824633
146	0x406251c0	3.5362396
147	0x40462fdb	3.0966709
148	0xc0bafc32	-5.8432856
149	0xc0adae2d	-5.4275117
150	0x400b0bef	2.1726034
151	0xbfd2bfb4	-1.6464753
152	0xbfe6b053	-1.802256
153	0x3e2f1b1c	0.17100185
154	0xc04bd0c7	-3.1846178
155	0x3fb08127	1.3789414
156	0xc0089755	-2.1342366
157	0xc056ec5a	-3.3581758
158	0xbf7396f4	-0.9515221
159	0xc104d91c	-8.303005
160	0xc088d7b7	-4.2763324
161	0x409d58df	4.9170985
162	0xbff459a1	-1.9089853
163	0xc0a1b9e9	-5.053944
164	0x410f1437	8.942435
165	0x40095872	2.1460233
166	0xc08298d1	-4.0811543
167	0xc10808b8	-8.502129
168	0x3fe60073	1.7968887
169	0x3f85f48e	1.0465257
170	0xbf503a85	-0.81339294
171	0x3f5f5840	0.87244034
172	0x3fa33c8f	1.2752856
173	0x40c99272	6.2991266
174	0xc0c135e3	-6.037828
175	0xbffc0f7b	-1.9692224
176	0x406e020a	3.7188745
177	0x406e85b9	3.7269118
178	0x401bd946	2.4351363
179	0xc019aaf1	-2.4010584
180	0xc0e3645f	-7.1060023
181	0xc01292c2	-2.2902074
182	0x4070b453	3.761006
183	0x3e9a10e2	0.30091006
184	0xc0b9e65e	-5.809371
185	0x4047fcb9	3.1248
186	0xc0aa2542	-5.317048
187	0x40940f87	4.6268954
188	0x403ca0a3	2.9473045
189	0x409c8013	4.890634
190	0xbf32da5d	-0.69864446
191	0x4075a8e0	3.8384323
192	0xbf9ff846	-1.2497642
193	0xbc9f0487	-0.019411338
194	0x405b0351	3.4220774
195	0xc0170cdf	-2.3601606
196	0xc00d7994	-2.2105455
197	0x3e80f581	0.25187305
198	0x4003e731	2.0609858
199	0x3f88eae8	1.0696688
200	0x40416282	3.0216374
201	0xc0186758	-2.3813076
202	0x408098ac	4.0186367
203	0x3e2b9e02	0.16759494
204	0xc024eed6	-2.5770774
205	0xbe01b6ad	-0.12667342
206	0xc0176e4f	-2.3661077
207	0xbf3bdf21	-0.7338734
208	0x40733c85	3.8005688
209	0x3ff357b0	1.9011135
210	0x4015975b	2.337363
211	0x4088dd15	4.2769876
212	0xc089a0f9	-4.3009
213	0x3fc527ff	1.5402831
214	0xbe0817d1	-0.13290335
215	0x40751c94	3.8298693
216	0xbf50357f	-0.8133163
217	0x4047b9ba	3.1207108
218	0xc0b486b8	-5.641445
219	0x3ce9706a	0.028495986
220	0xbfdbcfd1	-1.7172796
221	0x3fa988fe	1.3244932
222	0x3ec00fee	0.37512153
223	0x409c2093	4.8789763
224	0x40266067	2.599634
225	0x407bbffa	3.9335923
226	0x4067c1d0	3.6212044
227	0x409ade33	4.839624
228	0x3fcad66e	1.5846689
229	0x3fc612d3	1.5474495
230	0x40c931e5	6.2873406
231	0x40d02de8	6.505604
232	0xbfa694d2	-1.3014166
233	0x4027283e	2.6118312
234	0xbfd7eff0	-1.6870098
235	0xbe581326	-0.21101055
236	0xc04abac2	-3.1676488
237	0xc0430979	-3.0474532
238	0x405deac6	3.4674544
239	0xbf4e90f3	-0.80689925
240	0x408f6935	4.4815927
241	0x3f0e9f69	0.5571199
242	0xc01db5cd	-2.4642212
243	0xbfc31e73	-1.5243667
244	0x408ca616	4.395274
245	0xbf8ba9d5	-1.0911204
246	0xbf4eee2d	-0.8083218
247	0x40a1a6c1	5.0516057
248	0x405a8ba4	3.414773
249	0x3f17217d	0.59035474
250	0xbf174ff9	-0.59106404
251	0x3fcecf7c	1.6157069
252	0xc00176b5	-2.0228703
253	0xc06b5285	-3.6769116
254	0xc018a760	-2.3852158
255	0x407bdb31	3.9352534

fc.weight f4 [1, 64]
0	0xc4ce26c1	-1649.211
1	0xc4ca8335	-1620.1002
2	0xc4c52129	-1577.0363
3	0x44c87404	1603.6255
4	0x44cca531	1637.1622
5	0x44cc5ad5	1634.8385
6	0xc4c78842	-1596.258
7	0xc4c9eb6a	-1615.3567
8	0x44c75642	1594.6956
9	0x44c82b2d	1601.3492
10	0xc4cc1b3c	-1632.8511
11	0xc4c9c62e	-1614.1931
12	0x44c838ee	1601.779
13	0x44c79692	1596.7053
14	0xc4c91d2b	-1608.9115
15	0xc4cabe8a	-1621.9543
16	0xc4c61b2c	-1584.8491
17	0xc4cafe10	-1623.9395
18	0x44cb4953	1626.2914
19	0x44c8565a	1602.6985
20	0xc4cbe571	-1631.17
21	0xc4cc7f28	-1635.9736
22	0x44cb03c6	1624.1179
23	0xc4c916e7	-1608.7157
24	0xc4ca1829	-1616.755
25	0x44c7f6f1	1599.7169
26	0xc4c971ae	-1611.5525
27	0x44c77f6a	1595.9817
28	0x44cb34b8	1625.6475
29	0xc4c95385	-1610.61
30	0xc4c6d674	-1590.7017
31	0xc4c6c91e	-1590.2849
32	0xc4c59760	-1580.7305
33	0x44caddfe	1622.9373
34	0x44c75eb4	1594.9595
35	0xc4c5510d	-1578.5328
36	0x44cb4c4a	1626.384
37	0x44cb5782	1626.7346
38	0xc4c68f1b	-1588.472
39	0xc4c94d74	-1610.4204
40	0x44ca97ed	1620.7477
41	0xc4c72af0	-1593.3418
42	0xc4c97f29	-1611.9738
43	0x44cc1692	1632.7053
44	0x44cbe1ca	1631.0559
45	0x44c905be	1608.1794
46	0xc4c72d75	-1593.4205
47	0x44ccee76	1639.4519
48	0xc4c96f1c	-1611.4722
49	0x44cdbb7b	1645.8588
50	0x44c98038	1612.0068
51	0xc4c8e8d0	-1607.2754
52	0xc4c6675c	-1587.23
53	0xc4c690f4	-1588.5298
54	0x44ca77dc	1619.7456
55	0xc4c8161c	-1600.6909
56	0xc4c72a34	-1593.3188
57	0x44c6c3e9	1590.1222
58	0xc4c84198	-1602.0498
59	0xc4cbe78a	-1631.2356
60	0x44cc2795	1633.2369
61	0x44cc70f3	1635.5297
62	0x44c86021	1603.004
63	0x44cd5ce3	1642.9027
