models/global_lstm_state (3).pth (torch, 97214 bytes, 8 tensors)

store_emb.weight f4 [45, 4]
0.07294724 -2.9482057 2.605078 -3.9626405 -0.37500888 -2.2553864 0.94142556 -2.2381735
-4.5153 1.647033 6.211694 -2.3034635 -1.6765275 -0.3525465 -0.960624 -1.5856963
-1.6449429 4.6166553 5.6631536 -0.12623419 0.6013126 -3.5799599 1.6540855 5.0912437
4.445009 3.0177875 -1.1142937 1.3291656 1.859569 3.5226202 2.1139839 -1.955819
-0.24676234 1.8079286 4.5181904 -1.0060592 -3.604281 -3.4559925 -3.1794126 0.37281957
-0.588196 3.3374784 -0.53906685 -4.8118258 -2.1108825 0.8854173 -1.1662203 -2.4168463
0.7195788 -0.844577 -1.1516316 -1.936232 -1.1905944 0.071870506 -0.69187653 2.6049883
0.5753512 1.2352816 2.4519973 1.0435334 2.2135215 1.5338045 0.742904 1.8755326
1.7806232 0.26158345 1.3372426 -3.1927054 1.5682558 -0.21707754 -0.81355226 -0.67197275
2.798788 -0.59461945 0.8156039 -0.12485398 -0.39231873 -2.062117 0.5229065 0.49720573
-2.3566456 2.6798532 0.79429805 -0.71335983 2.039189 -0.90419626 -0.07649581 -0.11500158
1.8706928 -0.69414055 -3.0390573 0.2128265 3.5152547 1.1420608 -1.0008831 -1.1570894
3.2145615 2.1874733 0.5392193 0.8310967 0.96059597 0.55358887 4.6036286 -1.0644952
0.9756722 1.2369562 -2.0299172 1.0315559 -2.101871 3.9452412 -1.1442258 -0.92761815
-1.3278472 4.489769 1.64023 0.14333928 -0.17313054 2.5342793 4.8089337 0.4186674
-1.528549 3.3901477 0.8401436 1.1543033 1.1593717 1.401375 2.02785 0.81992567
6.3837857 3.1143122 7.802223 5.4495807 1.4782828 3.1112127 1.9486787 -1.4467067
-0.5227713 1.7076123 -2.8844635 1.5304579 8.920227 -1.8407983 6.291604 2.9285972
-0.08717305 1.5680588 3.4505806 -1.0582662 0.59757346 3.2962716 5.178105 0.22008374
-0.60250497 1.951778 -0.5569232 -1.0168077 3.3712187 2.8129632 0.1288974 1.7639955
1.4782025 2.1110477 0.21268481 0.5616569 3.6770582 1.8517063 -0.055908903 -0.4085013
3.3176286 -0.061889235 0.9547568 1.0307417 2.902084 3.274171 6.6222606 -2.592693
3.6291993 1.1804802 0.30091834 -1.0174673
00000000: 5d65 953d 67af 3cc0 99b9 2640 e79b 7dc0
00000010: 2a01 c0be 4058 10c0 4401 713f 3c3e 0fc0
00000020: 567d 90c0 fad1 d23f 32c6 c640 f26b 13c0
00000030: 7498 d6bf fa80 b4be 74eb 75bf 19f8 cabf
00000040: 7d8d d2bf a4bb 9340 8e38 b540 8943 01be
00000050: 9fef 193f 101e 65c0 13b9 d33f 78eb a240
00000060: 843d 8e40 6e23 4140 2da1 8ebf 1922 aa3f
00000070: 5b06 ee3f 9c72 6140 834b 0740 4758 fabf
00000080: 44af 7cbe 346a e73f 0495 9040 8cc6 80bf
00000090: 8aac 66c0 fb2e 5dc0 7f7b 4bc0 35e2 be3e
000000a0: 0394 16bf 3f99 5540 4900 0abf 7afa 99c0
000000b0: b318 07c0 b5aa 623f b546 95bf 9cad 1ac0
000000c0: 5136 383f 3336 58bf aa68 93bf 73d6 f7bf
000000d0: 6665 98bf d830 933d d21e 31bf 21b8 2640
000000e0: 374a 133f b51d 9e3f 86ed 1c40 8192 853f
000000f0: 56aa 0d40 b553 c43f f52e 3e3f 7411 f03f
00000100: 76eb e33f 44ee 853e c42a ab3f 4955 4cc0
00000110: 9bbc c83f 9349 5ebe f644 50bf 6806 2cbf
00000120: 581f 3340 fb38 18bf 6bcb 503f 72b3 ffbd
00000130: 00de c8be baf9 03c0 33dd 053f c091 fe3e
00000140: 48d3 16c0 b782 2b40 1e57 4b3f c09e 36bf
00000150: 1382 0240 6879 67bf d6a9 9cbd f385 ebbd
00000160: dd72 ef3f 32b3 31bf ea7f 42c0 31ef 593e
00000170: eff9 6040 0c2f 923f f01c 80bf 811b 94bf
00000180: 60bb 4d40 90ff 0b40 470a 0a3f c1c2 543f
00000190: 9ee9 753f 00b8 0d3f ed50 9340 6141 88bf
000001a0: a7c5 793f 9554 9e3f 2aea 01c0 060a 843f
000001b0: 0e85 06c0 d57e 7c40 fe75 92bf 6278 6dbf
000001c0: e6f6 a9bf 30ac 8f40 0ef3 d13f 88c7 123e
000001d0: 2249 31be a231 2240 c9e2 9940 935b d63e
000001e0: 7ea7 c3bf 2ef8 5840 a713 573f 36c0 933f
000001f0: 4b66 943f 4260 b33f 4bc8 0140 a6e6 513f
00000200: f947 cc40 e450 4740 d0ab f940 f762 ae40
00000210: 5f38 bd3f 1c1e 4740 4e6e f93f af2d b9bf
00000220: 57d4 05bf 0a93 da3f 0d9b 38c0 0be6 c33f
00000230: 40b9 0e41 479f ebbf d254 c940 236e 3b40
00000240: c987 b2bd 27b6 c83f 50d6 5c40 4475 87bf
00000250: 93fa 183f 1df6 5240 09b3 a540 a25d 613e
00000260: c43d 1abf ddd3 f93f 8592 0ebf c126 82bf
00000270: 0cc2 5740 9707 3440 aefd 033e 9bca e13f
00000280: bd35 bd3f 681b 0740 0cca 593e bfc8 0f3f
00000290: ec54 6b40 b604 ed3f bc00 65bd 1527 d1be
000002a0: 0754 5440 917f 7dbd f16a 743f 58ef 833f
000002b0: bfbb 3940 058c 5140 8fe9 d340 afee 25c0
000002c0: cd44 6840 fa19 973f f811 9a3e 5e3c 82bf

dept_emb.weight f4 [81, 8]
-3.262543 2.3157747 -3.8245084 1.1414802 3.4688559 -4.3954396 1.1570575 3.8986344
2.445985 4.0245223 -3.1124182 0.6541469 2.9844766 -0.7482371 4.3136725 -0.6744279
0.28364727 -1.0314627 0.8889452 -0.1092032 1.4053677 3.984354 -3.211067 2.8651898
-0.05473733 5.489593 -6.0056562 0.41382828 6.426032 -1.9462624 1.8663543 -1.7213941
-0.26104838 -0.27654445 0.77372265 -3.8118858 2.1857822 2.3462293 1.3616576 -1.9171294
0.45077893 0.6133353 0.9046402 -4.260776 -2.5347083 1.2377658 -4.0347548 -1.8777974
-1.5626339 -1.3975194 0.25368795 -1.7512199 -0.20973827 4.24283 1.1541637 -2.6201124
2.7140844 1.6448855 -2.7964628 1.0161694 10.63429 -1.2807782 0.46382752 -0.46391055
4.8798094 1.3833067 1.8915883 1.7869346 -4.0119796 3.6873813 1.5028495 1.0183418
8.848463 3.191593 -1.377671 0.4546075 -0.28624356 -0.9372031 -0.7052802 1.9188946
1.2306951 6.3911552 1.4906965 1.1495594 -1.9224486 6.5448227 -1.3030311 0.93243045
-9.051383 21.725204 -5.509544 -0.7780974 8.994868 -0.85332364 -7.9515405 9.078989
1.3432851 4.594109 -6.121719 1.2770082 3.8741097 0.20408699 1.1235379 -1.3097773
0.4466355 1.6572964 -4.3799696 -2.6118884 1.963956 1.0992109 0.5405612 3.4025247
-4.696087 0.4277575 1.0474687 -2.5284026 -5.5856094 -1.909424 2.3273695 2.1036818
-0.9146013 2.8019397 -4.5901995 -2.0544991 2.0224535 -0.49781552 -3.343239 3.5847933
0.5845594 -0.13425319 -1.5635731 2.9075012 -4.3175488 2.284118 -1.8749031 -2.5081859
0.46339428 -12.542548 2.8247094 -1.7773077 -1.7480038 2.2478466 -1.3036917 1.7704865
5.0605044 -2.7082007 10.087683 -3.4150283 -0.7297949 -0.65063983 1.243407 -3.889572
0.34914878 2.9490485 4.0702376 -6.619144 -2.870532 0.3466914 -5.368556 0.11244309
3.1570513 1.0444967 1.4996449 -5.25954 1.8590028 -2.1763651 -0.9712889 -4.0953236
-0.08150168 1.6058977 -3.4928794 -3.1358466 -0.5905778 0.4744215 1.5037994 0.5293402
3.4516397 -2.4365504 2.7721345 -7.4412994 0.6381605 2.0650945 -2.574667 0.6342867
3.421939 -3.696146 7.1241264 -3.7885675 0.9132038 -0.54792315 1.3380544 -0.56957996
0.19629912 5.226524 -3.1371505 -5.689444 8.167054 -3.9658387 -1.2933282 6.8742685
1.4825592 -0.8518775 4.537689 -5.5668993 -3.0706797 1.0272403 -5.9241114 -5.4543147
1.0790558 -8.415863 1.208657 -11.390861 -2.1346726 1.6157197 -3.0692792 -11.368011
-0.6131547 5.883954 -3.7138748 -7.8518424 3.3737216 -4.974677 -0.25290552 1.9388974
-2.988028 9.541296 -5.5154643 -4.8821335 3.859081 -4.858156 -8.867965 6.8371305
-2.2568274 -11.334209 -1.3784491 -9.876258 1.6087854 -1.5017756 -0.51399237 -9.10002
-4.2432556 4.30677 -3.0365055 -2.7244868 4.4348083 -1.2174966 -3.274311 3.4543457
-0.799915 5.0129156 -4.356925 -8.528885 4.435821 -3.6863008 0.4646179 0.40996855
00000000: 81cd 50c0 a735 1440 bfc4 74c0 061c 923f
00000010: bc01 5e40 71a7 8cc0 761a 943f 3a83 7940
00000020: 058b 1c40 e3c8 8040 dc31 47c0 2c76 273f
00000030: aa01 3f40 778c 3fbf 9b09 8a40 4fa7 2cbf
00000040: 373a 913e f806 84bf ea91 633f eda5 dfbd
00000050: 17e3 b33f a8ff 7e40 1f82 4dc0 455f 3740
00000060: 4034 60bd bfaa af40 562e c0c0 4de1 d33e
00000070: 0ea2 cd40 201f f9bf b3e4 ee3f a456 dcbf
00000080: 22a8 85be 3c97 8dbe b012 463f f0f5 73c0
00000090: dbe3 0b40 9f28 1640 cc4a ae3f 7f64 f5bf
000000a0: 7fcc e63e 8b03 1d3f 8096 673f 4758 88c0
000000b0: a938 22c0 1c6f 9e3f b61c 81c0 aa5b f0bf
000000c0: 6304 c8bf eae1 b2bf 63e3 813e f927 e0bf
000000d0: a1c5 56be 43c5 8740 a3bb 933f ecaf 27c0
000000e0: 8fb3 2d40 9c8b d23f 3ff9 32c0 d711 823f
000000f0: 0d26 2a41 8af0 a3bf cd7a ed3e af85 edbe
00000100: 6627 9c40 3210 b13f 911f f23f 46ba e43f
00000110: 2362 80c0 0efe 6b40 5f5d c03f 0659 823f
00000120: 4e93 0d41 0f43 4c40 8657 b0bf 50c2 e83e
00000130: 848e 92be 8bec 6fbf 3e8d 34bf 579e f53f
00000140: 6b87 9d3f 5884 cc40 25cf be3f c324 933f
00000150: cc12 f6bf 306f d140 b9c9 a6bf c3b3 6e3f
00000160: 77d2 10c1 38cd ad41 2f4e b0c0 6431 47bf
00000170: fbea 0f41 6b73 5abf 0573 fec0 8a43 1141
00000180: c4f0 ab3f f102 9340 1fe5 c3c0 0175 a33f
00000190: 6af1 7740 2efc 503e 17d0 8f3f c8a6 a7bf
000001a0: 69ad e43e 4a22 d43f b628 8cc0 2e29 27c0
000001b0: e962 fb3f f1b2 8c3f 3862 0a3f f7c2 5940
000001c0: 5846 96c0 0803 db3e 7413 863f 59d1 21c0
000001d0: 50bd b2c0 0168 f4bf 9ff3 1440 b9a2 0640
000001e0: 5023 6abf fb52 3340 eae2 92c0 ea7c 03c0
000001f0: e16f 0140 ade1 febe a1f7 55c0 416d 6540
00000200: afa5 153f ab79 09be 2a23 c8bf 8014 3a40
00000210: 5c29 8ac0 fd2e 1240 d3fc efbf 1e86 20c0
00000220: 0442 ed3e 47ae 48c1 0ac8 3440 d27e e3bf
00000230: 97be dfbf b8dc 0f40 5fdf a6bf 4d9f e23f
00000240: a7ef a140 2953 2dc0 2667 2141 d38f 5ac0
00000250: d7d3 3abf 5590 26bf f627 9f3f bfee 78c0
00000260: a1c3 b23e 36bd 3c40 633f 8240 07d0 d3c0
00000270: ccb6 37c0 8981 b13e 36cb abc0 9048 e63d
00000280: 210d 4a40 11b2 853f 5df4 bf3f 274e a8c0
00000290: cef3 ed3f 9149 0bc0 64a6 78bf e40c 83c0
000002a0: 5aea a6bd 0e8e cd3f 568b 5fc0 b6b1 48c0
000002b0: 1b30 17bf 60e7 f23e 807c c03f d782 073f
000002c0: aae7 5c40 71f0 1bc0 a76a 3140 201f eec0
000002d0: 7d5e 233f 822a 0440 58c7 24c0 9d60 223f
000002e0: 0c01 5b40 a88d 6cc0 d8f8 e340 e477 72c0
000002f0: b9c7 693f b144 0cbf 5e45 ab3f fecf 11bf
00000300: a302 493e af3f a740 13c7 48c0 ed0f b6c0
00000310: 41ac 0241 4dd0 7dc0 c78b a5bf 02fa db40
00000320: 80c4 bd3f a514 5abf c034 9140 0a24 b2c0
00000330: 0486 44c0 9c7c 833f 5292 bdc0 bf89 aec0
00000340: 801e 8a3f 60a7 06c1 46b5 9a3f f740 36c1
00000350: 7a9e 08c0 e7cf ce3f 126f 44c0 60e3 35c1
00000360: b5f7 1cbf 5a49 bc40 20b0 6dc0 4b42 fbc0
00000370: 0eeb 5740 8e30 9fc0 d57c 81be ca2d f83f
00000380: da3b 3fc0 26a9 1841 af7e b0c0 703a 9cc0
00000390: 2ffb 7640 0476 9bc0 2fe3 0dc1 c6c9 da40
000003a0: dc6f 10c0 ec58 35c1 0571 b0bf 2705 1ec1
000003b0: aeec cd3f 2f3a c0bf 0195 03bf af99 11c1
000003c0: c0c8 87c0 0fd1 8940 1b56 42c0 fe5d 2ec0
000003d0: f3e9 8d40 eed6 9bbf 508e 51c0 0014 5d40
000003e0: 3bc7 4cbf ce69 a040 ee6b 8bc0 5076 08c1
000003f0: 3ff2 8d40 5aec 6bc0 66e2 ed3e 66e7 d13e

type_emb.weight f4 [3, 2]
-0.55529475 -0.29657832 0.7482686 0.42470652 -3.3754096 3.6199527
00000000: cc27 0ebf 1dd9 97be 888e 3f3f 2273 d93e
00000010: b606 58c0 4ead 6740

lstm.weight_ih_l0 f4 [256, 22]
-2.1757536 0.34871548 -1.3179582 -0.8895148 4.8885336 -1.873225 1.5255907 4.491747
6.8366513 -1.0316777 3.9921365 4.870091 -3.1208706 0.21396758 4.6291676 0.11599376
-5.5400934 -1.3975585 2.0299506 1.3564485 1.4075601 -1.570283 -6.0776463 -4.8063045
4.1617284 0.30673322 2.006847 4.672049 -6.960447 -2.2791545 -0.268981 -0.14308384
4.2748966 -3.0581236 2.5041804 1.3894196 -3.2628214 0.25782093 -1.0035093 -0.80082047
-2.8618655 -2.3703833 -2.226252 1.3843924 9.241993 5.270045 6.96823 0.9290032
3.7766986 -0.7899825 -3.8628807 -2.9193377 0.19312105 -1.4947826 4.15798 0.86693186
-1.8956059 3.0463133 -1.9702344 -1.4372798 -0.29657927 -0.30553025 -0.09283422 0.10230707
0.07903859 -0.6898652 -4.1626573 -0.9101351 3.6415381 -2.9205189 -4.2459903 7.729737
-0.009983409 2.1414206 0.114202574 -1.2064112 -2.8970096 3.1499104 2.5983894 -1.4618524
-0.581184 -4.7680726 2.9917138 3.58263 4.9470096 3.312519 3.2796736 10.341842
-1.3806217 1.6434383 -5.094634 0.5093089 -6.806696 -2.0167997 3.826692 -2.990265
3.0791936 3.6736171 2.1319864 1.5592114 4.7491894 -3.3032908 2.0091858 -3.7526212
2.938852 -0.7976648 0.9286759 0.09116533 0.16244568 7.0017753 0.34119734 -0.5974646
-0.16404107 0.73754525 -2.1321504 1.1570804 1.9492726 -0.97971934 -1.24704 0.4547457
1.0512404 0.26964834 1.7751418 -3.708276 1.1168865 1.1920338 1.2353762 -3.191292
-0.25594327 -0.30257565 -0.3949067 30.620752 -0.3934235 -3.0580416 0.95933247 0.9022206
2.3495812 8.825681 -1.0124234 4.542133 2.3219945 1.5048194 3.6170537 -5.087534
-0.9812322 -6.059278 3.5727222 5.9061456 -0.93863714 -1.6267365 1.6712902 2.9167514
2.8345125 3.3279462 -0.96847856 3.5546637 5.722146 -2.2980926 1.4937161 2.2780948
-3.746485 -0.9960811 -3.7720523 0.14310156 2.632396 -2.444903 -3.0778377 -1.3173435
1.9339272 -2.69142 0.7087042 2.013422 -0.5811675 0.3638218 0.48652866 -3.668832
-1.5329907 2.8408437 -3.6480346 3.381889 5.78732 4.8672614 0.03690362 2.2162404
6.7531433 -0.50796527 4.0019135 1.3707602 2.4199414 -1.0042589 -0.4062106 -1.6283231
-2.1742067 1.3417848 1.1117399 1.5219711 1.4792354 -1.4260082 2.192122 1.8922257
-0.815795 -0.13768186 0.068044044 -0.6122818 0.761997 8.075377 -1.4018565 -4.6318383
-0.8107332 -0.9176454 2.5120163 0.78915954 -3.1077032 5.9716 5.447423 -2.250468
4.6439533 4.999677 4.8986773 12.965065 -2.2724755 0.48822924 -3.6838534 -0.6655125
3.280273 -6.906009 2.6462781 0.7880426 -2.2963734 8.335621 1.9581466 -5.297336
3.169036 3.058309 1.1817698 -1.4510822 0.5388343 1.0560782 -1.5975249 0.62187356
0.51205945 -0.4573358 -0.27511492 -9.089094 6.8138742 -8.814642 1.0978884 -0.04260708
-4.9266524 -3.026144 1.9477545 -3.7969089 3.4884892 -1.0812794 3.4078 -1.5423704
00000000: 8c3f 0bc0 d68a b23e dbb2 a8bf 3eb7 63bf
00000010: de6e 9c40 d6c5 efbf 8e46 c33f 64bc 8f40
00000020: d9c5 da40 040e 84bf 2a7f 7f40 c9d7 9b40
00000030: 58bc 47c0 511a 5b3e 2422 9440 238e ed3d
00000040: 7248 b1c0 32e3 b2bf b6ea 0140 1ba0 ad3f
00000050: ee2a b43f 09ff c8bf 147c c2c0 3fcd 99c0
00000060: e12c 8540 230c 9d3e 2e70 0040 6d81 9540
00000070: fbbb dec0 abdd 11c0 e1b7 89be 9284 12be
00000080: f4cb 8840 4cb8 43c0 7e44 2040 80d8 b13f
00000090: 11d2 50c0 1b01 843e fe72 80bf 9202 4dbf
000000a0: ce28 37c0 5cb4 17c0 ea7a 0ec0 c533 b13f
000000b0: 34df 1341 35a4 a840 bdfb de40 27d3 6d3f
000000c0: 6eb5 7140 4b3c 4abf 7039 77c0 6ed6 3ac0
000000d0: 86c1 453e 0955 bfbf 2c0e 8540 3fef 5d3f
000000e0: 37a3 f2bf ccf6 4240 a430 fcbf c9f8 b7bf
000000f0: 3dd9 97be 766e 9cbe de1f bebd 5e86 d13d
00000100: fcde a13d 019b 30bf 7d34 85c0 9dfe 68bf
00000110: f60e 6940 c8e9 3ac0 27df 87c0 015a f740
00000120: 7491 23bc 090d 0940 0ae3 e93d af6b 9abf
00000130: 9b68 39c0 2298 4940 034c 2640 fb1d bbbf
00000140: 7ac8 14bf 0d94 98c0 3d78 3f40 cf49 6540
00000150: e74d 9e40 5000 5440 2ce6 5140 2f78 2541
00000160: 36b8 b0bf 305c d23f 3e07 a3c0 1162 023f
00000170: 74d0 d9c0 3f13 01c0 86e8 7440 8060 3fc0
00000180: 8211 4540 8b1c 6b40 7772 0840 3d94 c73f
00000190: 5cf9 9740 1e69 53c0 8096 0040 f22a 70c0
000001a0: 2716 3c40 c333 4cbf b4bd 6d3f e3b4 ba3d
000001b0: 2958 263e 8b0e e040 6bb1 ae3e 71f3 18bf
000001c0: 62fa 27be c4cf 3c3f 2775 08c0 361b 943f
000001d0: c481 f93f e3ce 7abf 029f 9fbf 6ed4 e83e
000001e0: 0c8f 863f 590f 8a3e d937 e33f 6554 6dc0
000001f0: 23f6 8e3f 9094 983f cf20 9e3f 213e 4cc0
00000200: ff0a 83be 32eb 9abe 3631 cabe 4df7 f441
00000210: ce6e c9be f4b6 43c0 d096 753f eef7 663f
00000220: 8a5f 1640 fd35 0d41 1797 81bf 2759 9140
00000230: 8f9b 1440 ec9d c03f cf7d 6740 14cd a2c0
00000240: 0932 7bbf 9be5 c1c0 7ba7 6440 25ff bc40
00000250: 864a 70bf e738 d0bf d6ec d53f 0eac 3a40
00000260: a768 3540 12fd 5440 36ee 77bf 9c7f 6340
00000270: d21b b740 f313 13c0 1732 bf3f 4ecc 1140
00000280: 69c6 6fc0 2cff 7ebf 4e69 71c0 3789 123e
00000290: 2d79 2840 4a79 1cc0 4bfb 44c0 b69e a8bf
000002a0: ed8a f73f 3a40 2cc0 a36d 353f e8db 0040
000002b0: 65c7 14bf da46 ba3e 491a f93e 25ce 6ac0
000002c0: 0a39 c4bf 62d0 3540 6679 69c0 df70 5840
000002d0: ba31 b940 9bc0 9b40 4028 173d e2d6 0d40
000002e0: c019 d840 030a 02bf ad0f 8040 1275 af3f
000002f0: 52e0 1a40 8e8b 80bf d6fa cfbe e46c d0bf
00000300: 3426 0bc0 9bbf ab3f 7e4d 8e3f f3cf c23f
00000310: 9657 bd3f 7087 b6bf ba4b 0c40 7434 f23f
00000320: f1d7 50bf 79fc 0cbe ad5a 8b3d 80be 1cbf
00000330: 3c12 433f bf34 0141 0970 b3bf 0538 94c0
00000340: 368c 4fbf cfea 6abf e0c4 2040 5c06 4a3f
00000350: 9ce4 46c0 5917 bf40 4a51 ae40 ab07 10c0
00000360: 449b 9440 5bfd 9f40 f7c1 9c40 e870 4f41
00000370: 3d70 11c0 2ff9 f93e 41c4 6bc0 075f 2abf
00000380: feef 5140 07fe dcc0 9f5c 2940 29bd 493f
00000390: c8f7 12c0 b45e 0541 8ca4 fa3f c783 a9c0
000003a0: 7cd1 4a40 56bb 4340 3c44 973f 10bd b9bf
000003b0: 0bf1 093f 922d 873f b27b ccbf 1b33 1f3f
000003c0: 5416 033f eb27 eabe dddb 8cbe ee6c 11c1
000003d0: 420b da40 c608 0dc1 9b87 8c3f c384 2ebd
000003e0: 23a7 9dc0 58ac 41c0 0550 f93f 8e00 73c0
000003f0: 6843 5f40 5d67 8abf 6519 5a40 656c c5bf

lstm.weight_hh_l0 f4 [256, 64]
-6.699976 -4.4744935 4.20682 -0.364844 -4.8063774 1.5389233 -1.2058239 -5.819873
9.221144 -4.782586 4.175822 -5.629108 4.357325 -5.1935883 0.7839325 -2.147433
0.21329437 -0.82023233 0.0041452646 -6.1755953 -0.78343916 -4.620258 4.252968 4.8069506
-1.7563756 -2.3716989 -0.32745 3.310434 1.3843688 6.041486 -1.081913 -2.345418
-2.1995087 -1.5914267 -0.9687087 0.8871003 -5.44579 -2.6005921 5.0779333 -2.1206944
3.09503 0.6995638 0.8039305 2.8583958 8.707839 0.67435026 -3.5771158 -5.359576
-2.0549462 0.57557636 -0.946224 5.074791 10.922029 -2.1180503 -5.5008097 -2.95809
-3.0438528 -3.460444 -5.844653 -1.2977525 5.8891597 2.4877772 -1.9899956 2.218634
-5.5408278 -5.873997 2.5924718 0.95407474 -0.93134046 1.0908153 -5.3525505 -3.2146456
3.054941 -1.6553736 -0.28163153 3.4856946 -3.633622 -3.4642978 6.230295 -2.99569
2.9303048 -0.8711861 2.6035852 -1.2444208 -0.36786512 -3.6733937 3.7937984 7.374191
-6.8287063 -5.308602 3.8302526 -0.72957987 0.007864529 -1.163309 -2.3844059 -0.9987433
-4.113953 -3.8962932 1.8699217 0.35447526 -5.686091 -4.7149105 0.39941815 1.6251273
-0.5870159 1.3889185 0.26039866 6.593743 -1.3470677 0.5683559 -4.095821 -6.8245673
-4.070205 3.4111748 -1.1781033 5.667403 3.1239674 -10.351209 -10.390979 3.3338265
-4.0236273 -0.83881927 -7.6858654 1.8182071 -2.3602793 4.668213 -3.1573894 5.2630467
-1.1631278 -1.41702 3.8968182 0.8693443 -1.7821231 0.7088595 -0.32591027 2.4043064
-1.7980611 -5.1723266 1.1666993 0.57416785 -4.092572 -2.859147 13.015336 0.4880688
6.4991856 -0.25227252 3.6478233 0.4140698 -4.91261 -5.895033 -2.0439663 2.0415645
0.6957314 -8.015646 -3.1533332 -1.0356402 -0.0067752996 -2.2669022 2.5023243 -4.510674
1.2737378 5.786902 4.3646393 1.0640167 0.55101264 -5.891848 5.6249185 -1.6258194
-0.82498914 2.9736905 -2.2962372 4.9772434 6.474396 3.803448 -4.2044883 -14.396551
2.0755746 -5.5409994 9.196772 -1.1956354 2.2130892 -4.978412 1.5735102 -0.014286829
-5.199406 3.7812326 0.21271956 -7.8236823 -3.0862648 -2.0312982 3.4795685 -4.594245
-4.8153086 -1.5435841 -1.3905239 2.0096376 -5.911149 -11.700522 -2.3659708 -1.8877751
-3.9457788 0.62341094 -5.027613 -1.9438673 -7.8671317 -5.7116714 3.9550064 2.576492
0.66114897 0.91687596 14.858052 2.0301888 -0.30946958 0.38514274 -3.1948936 -0.006763479
8.5127735 7.061922 -4.2948437 7.169301 -5.7350082 -4.6666055 -0.027317785 0.41576806
-0.32897544 4.5226865 1.1177077 4.124947 -3.4445088 4.813054 5.102746 3.3336694
-2.6973991 1.8318166 10.118164 1.7798615 7.239738 2.4092224 -0.4055495 0.14588936
-0.6976672 2.8735921 0.10199421 2.2936466 5.0225816 3.3719666 1.4464052 -0.95225906
3.6887553 -0.9295583 -1.6918947 -1.5143989 0.08114489 -2.868144 -0.026715979 -0.23333828
00000000: 3466 d6c0 0d2f 8fc0 459e 8640 d5cc babe
00000010: d8cd 99c0 70fb c43f 7058 9abf 663c bac0
00000020: ce89 1341 f20a 99c0 55a0 8540 a721 b4c0
00000030: 356f 8b40 e031 a6c0 cdaf 483f 8b6f 09c0
00000040: d769 5a3e bffa 51bf 00d5 873b 7a9e c5c0
00000050: 788f 48bf 27d9 93c0 5018 8840 8ad2 9940
00000060: ead0 e0bf eac9 17c0 87a7 a7be 27de 5340
00000070: ff32 b13f da53 c140 207c 8abf 541b 16c0
00000080: c0c4 0cc0 dfb3 cbbf 4bfd 77bf 0119 633f
00000090: e943 aec0 1a70 26c0 6e7e a240 75b9 07c0
000000a0: f914 4640 9d16 333f 64ce 4d3f f5ef 3640
000000b0: 4f53 0b41 38a2 2c3f 77ef 64c0 a681 abc0
000000c0: 3d84 03c0 f958 133f bc3b 72bf b064 a240
000000d0: a1c0 2e41 238e 07c0 a206 b0c0 5951 3dc0
000000e0: 7cce 42c0 ea77 5dc0 6607 bbc0 c11c a6bf
000000f0: ff73 bc40 be37 1f40 2db8 febf 19fe 0d40
00000100: 764e b1c0 c9f7 bbc0 0feb 2540 3e3e 743f
00000110: 546c 6ebf d69f 8b3f 1848 abc0 c1bc 4dc0
00000120: 2784 4340 48e3 d3bf 0232 90be 9f15 5f40
00000130: 438d 68c0 0eb7 5dc0 945e c740 63b9 3fc0
00000140: 1d8a 3b40 0d06 5fbf 24a1 2640 2e49 9fbf
00000150: d158 bcbe e218 6bc0 98cd 7240 5ff9 eb40
00000160: c384 dac0 11e0 a9c0 dc22 7540 bfc5 3abf
00000170: 3ada 003c 4fe7 94bf 1b9a 18c0 a4ad 7fbf
00000180: 81a5 83c0 de5c 79c0 9859 ef3f c87d b53e
00000190: 75f4 b5c0 8ce0 96c0 8980 cc3e 2c04 d03f
000001a0: ad46 16bf 15c8 b13f f952 853e f1ff d240
000001b0: b76c acbf c67f 113f f710 83c0 db62 dac0
000001c0: 1f3f 82c0 b050 5a40 17cc 96bf 5e5b b540
000001d0: 15ef 4740 8d9e 25c1 7341 26c1 6a5d 5540
000001e0: 8ec1 80c0 dcbc 56bf 9cf2 f5c0 03bb e83f
000001f0: d10e 17c0 0062 9540 ab12 4ac0 e16a a840
00000200: 5fe1 94bf e960 b5bf 7865 7940 598d 5e3f
00000210: 9c1c e4bf d177 353f b6dd a6be 28e0 1940
00000220: de26 e6bf b383 a5c0 6756 953f aafc 123f
00000230: 5af6 82c0 44fc 36c0 d13e 5041 27e4 f93e
00000240: 54f9 cf40 dd29 81be f075 6940 f500 d43e
00000250: 1a34 9dc0 1ca4 bcc0 58d0 02c0 fea8 0240
00000260: 741b 323f 1640 00c1 36d0 49c0 dc8f 84bf
00000270: 5503 debb ed14 11c0 1526 2040 7157 90c0
00000280: d709 a33f 4d2e b940 20ab 8b40 b331 883f
00000290: 2a0f 0d3f 058a bcc0 55ff b340 da1a d0bf
000002a0: 7d32 53bf f250 3e40 8df5 12c0 9445 9f40
000002b0: 412e cf40 b16b 7340 2b8b 86c0 4658 66c1
000002c0: 37d6 0440 de4f b1c0 fa25 1341 950a 99bf
000002d0: 41a3 0d40 274f 9fc0 c868 c93f 4e13 6abc
000002e0: 8961 a6c0 b7ff 7140 28d3 593e 9b5b fac0
000002f0: 5d85 45c0 ca00 02c0 40b1 5e40 0e04 93c0
00000300: 0217 9ac0 2a94 c5bf b0fc b1bf e79d 0040
00000310: 2228 bdc0 5735 3bc1 116c 17c0 9da2 f1bf
00000320: a487 7cc0 dc97 1f3f 35e2 a0c0 a5d0 f8bf
00000330: 8bbf fbc0 03c6 b6c0 d31e 7d40 3fe5 2440
00000340: 0f41 293f 62b8 6a3f 95ba 6d41 9dee 0140
00000350: cc72 9ebe 6e31 c53e 2379 4cc0 2da0 ddbb
00000360: 5234 0841 44fb e140 5c6f 89c0 ea6a e540
00000370: 3085 b7c0 d554 95c0 8cc9 dfbc 8ddf d43e
00000380: 786f a8be d9b9 9040 0c11 8f3f 91ff 8340
00000390: d572 5cc0 8a04 9a40 b249 a340 d75a 5540
000003a0: 30a2 2cc0 f778 ea3f 00e4 2141 80d2 e33f
000003b0: efab e740 b330 1a40 2fa4 cfbe 0564 153e
000003c0: 519a 32bf efe8 3740 57e2 d03d 1bcb 1240
000003d0: fdb8 a040 4dce 5740 ce23 b93f 40c7 73bf
000003e0: 9114 6c40 88f7 6dbf 0190 d8bf d3d7 c1bf
000003f0: 4b2f a63d ac8f 37c0 78db dabc 3bf0 6ebe

lstm.bias_ih_l0 f4 [256]
-1.4147644 -1.654051 1.7059379 1.6533171 1.1037644 4.7940354 5.6358156 2.9153454
3.1361582 -2.4830713 -0.25491798 -0.6451231 3.8395972 -1.1319457 -2.803401 -4.92737
9.669031 2.7548172 -3.2226083 -0.51003265 1.31108 -2.5335772 6.6733947 -1.9524983
-2.8937976 0.32756367 -1.8777851 -0.58235556 -1.1542767 4.6486063 4.156681 2.289345
4.6842146 6.7427335 5.8001385 3.4569209 3.8513758 -3.8725915 1.9335995 -0.17042726
7.185754 -3.8319225 -3.563935 8.009052 -2.0816834 1.556877 0.6843221 -0.5587843
2.4945543 -5.1468077 -3.5409956 -0.25700912 2.5765681 4.0425806 3.146966 1.4118197
-4.658931 6.580067 3.1154027 2.4824405 1.1066836 -2.7557158 -0.08601351 5.0588865
-5.9202056 -2.6054518 -0.64934295 5.5495124 -1.0653601 -2.344071 -0.9613292 0.6015512
-2.5124881 -1.0248227 -0.43040395 0.74055487 -1.3850527 7.958724 -2.6390975 -1.231749
-0.9085709 -2.4885204 0.13621792 1.2433597 -1.594793 -0.46239787 -3.6186736 6.8466415
-2.8222902 5.733818 -3.4700308 1.1714528 -3.4894953 -4.6387577 -4.095398 -0.008171289
4.5708747 2.088984 -4.1602297 -0.1880347 -3.8863304 1.7527285 4.26559 -1.343642
1.7762129 0.067665756 -2.061689 -1.1266688 -2.0408096 -2.2293844 2.6615355 3.2374506
1.9011675 -3.5577278 -2.299891 1.9497126 1.3188803 0.9488774 3.60882 0.38600966
-0.77220976 8.832413 4.310114 0.20021915 0.058995463 -2.9237602 2.7938619 7.4375553
-1.9062246 2.5973198 1.050022 2.9158204 -0.49519235 -8.707757 2.0042093 6.785989
6.1723857 -3.1451764 2.8235333 6.5055294 2.2571084 2.5166368 8.848677 -1.1666415
1.4841045 -1.3256714 3.0451877 -4.8268733 5.010822 -5.174267 -2.1449075 1.2005066
0.7753031 -3.0677586 5.6166363 7.173202 -6.2049303 3.257525 3.359865 -3.4818516
-1.2871138 -8.403547 4.1831923 -7.8720407 5.3538 4.0608153 -4.3827567 1.065619
6.3944073 2.857518 0.8328192 6.011294 1.4514682 3.7944462 7.1422462 1.3548112
-8.48004 5.9839387 -2.1366596 -0.39885306 1.8242975 -1.2431614 -2.122974 8.916868
-1.5116365 -10.587365 -6.4549985 8.865078 6.293904 -0.5773552 -2.940143 7.397464
-2.7329895 2.0795186 -2.0764475 -2.6304195 2.3058703 -4.6709423 -1.5174036 8.427595
4.472303 -7.498022 5.254075 2.8325531 -5.285256 2.6672978 2.380364 1.7235899
1.9950186 -3.8101335 -6.224082 5.0844173 3.1753812 -8.322276 -0.31180394 -0.47573087
0.029903773 -6.352969 3.2882535 -8.785061 0.82053465 -1.8537849 0.536132 0.6743821
3.0834002 11.817331 -2.0197494 -1.1247292 -0.73141843 -1.9098513 7.144211 3.5729647
0.08651796 -1.160199 -2.5351222 -2.7598643 2.038835 0.54262054 1.80845 1.8603321
3.5283878 -7.093287 -1.7257214 -0.3487112 -3.5778344 -5.153197 4.3748856 -0.42575866
-5.3522053 6.492702 -3.2465992 -0.38969862 0.51401883 0.7377841 -1.7984204 3.1008518
00000000: 0017 b5bf f1b7 d3bf 2c5c da3f e59f d33f
00000010: 2748 8d3f bd68 9940 9a58 b440 0595 3a40
00000020: d1b6 4840 a4ea 1ec0 9c84 82be ca26 25bf
00000030: f6bb 7540 99e3 90bf ec6a 33c0 04ad 9dc0
00000040: 5ab4 1a41 ed4e 3040 373f 4ec0 8091 02bf
00000050: 78d1 a73f 2126 22c0 738c d540 77eb f9bf
00000060: fb33 39c0 6db6 a73e 435b f0bf 4115 15bf
00000070: 57bf 93bf 62c1 9440 8803 8540 a184 1240
00000080: 16e5 9540 79c4 d740 bc9a b940 313e 5d40
00000090: f17c 7640 8ad8 77c0 3080 f73f 7c84 2ebe
000000a0: b2f1 e540 383e 75c0 8317 64c0 1425 0041
000000b0: 4d3a 05c0 bf47 c73f bc2f 2f3f 7d0c 0fbf
000000c0: c7a6 1f40 a6b2 a4c0 ac9f 62c0 b396 83be
000000d0: 7ee6 2440 d25c 8140 e467 4940 82b6 b43f
000000e0: f615 95c0 e98f d240 c262 4740 4ee0 1e40
000000f0: cfa7 8d3f a65d 30c0 da27 b0bd 66e2 a140
00000100: 5372 bdc0 b9bf 26c0 573b 26bf 9b95 b140
00000110: b85d 88bf 4205 16c0 ac19 76bf 42ff 193f
00000120: 9bcc 20c0 642d 83bf e85d dcbe 0195 3d3f
00000130: 6849 b1bf dead fe40 f9e6 28c0 f4a9 9dbf
00000140: 1a98 68bf eb43 1fc0 b67c 0b3e 6926 9f3f
00000150: 2d22 ccbf 6abf ecbe 5998 67c0 b017 db40
00000160: 67a0 34c0 707b b740 fc14 5ec0 2af2 953f
00000170: e453 5fc0 b470 94c0 800d 83c0 dfe0 05bc
00000180: 9b44 9240 eab1 0540 9a20 85c0 2b8c 40be
00000190: a3b9 78c0 6859 e03f b77f 8840 76fc abbf
000001a0: f25a e33f 5894 8a3d b6f2 03c0 af36 90bf
000001b0: a09c 02c0 3cae 0ec0 9956 2a40 6432 4f40
000001c0: 7559 f33f d0b1 63c0 6a31 13c0 2f90 f93f
000001d0: 12d1 a83f a1e9 723f e8f6 6640 0fa3 c53e
000001e0: 8aaf 45bf 9051 0d41 74ec 8940 4006 4d3e
000001f0: 3aa5 713d e31e 3bc0 a2ce 3240 7400 ee40
00000200: 2bff f3bf 7d3a 2640 1f67 863f cd9c 3a40
00000210: da89 fdbe f952 0bc1 f744 0040 d226 d940
00000220: 2f84 c540 924a 49c0 c5b4 3440 4c2d d040
00000230: 7774 1040 9410 2140 2e94 0d41 8254 95bf
00000240: 23f7 bd3f 9aaf a9bf 5be4 4240 bf75 9ac0
00000250: a758 a040 9893 a5c0 2a46 09c0 33aa 993f
00000260: 447a 463f 2856 44c0 7cbb b340 df8a e540
00000270: ca8e c6c0 4a7b 5040 0708 5740 a8d6 5ec0
00000280: 25c0 a4bf ee74 06c1 b6dc 8540 c2e7 fbc0
00000290: 5452 ab40 33f2 8140 8b3f 8cc0 3466 883f
000002a0: fc9e cc40 93e1 3640 a433 553f 855c c040
000002b0: b6c9 b93f 35d8 7240 488d e440 746a ad3f
000002c0: 3eae 07c1 6d7c bf40 08bf 08c0 7836 ccbe
000002d0: 9582 e93f ea1f 9fbf cede 07c0 7eab 0e41
000002e0: 4e7d c1bf d965 29c1 598f cec0 5cd7 0d41
000002f0: a967 c940 8dcd 13bf 4e2b 3cc0 06b8 ec40
00000300: 4de9 2ec0 d516 0540 84e4 04c0 cb58 28c0
00000310: 6193 1340 5c78 95c0 483a c2bf 6ed7 0641
00000320: 1b1d 8f40 ccef efc0 6221 a840 8d48 3540
00000330: d120 a9c0 02b5 2a40 e257 1840 989e dc3f
00000340: c55c ff3f 3ad9 73c0 ae2b c7c0 8cb3 a240
00000350: 7239 4b40 0b28 05c1 c4a4 9fbe ff92 f3be
00000360: c2f8 f43c 864b cbc0 bf72 5240 9c8f 0cc1
00000370: 8f0e 523f d348 edbf f23f 093f 4ea4 2c3f
00000380: 6e56 4540 ca13 3d41 9343 01c0 20f7 8fbf
00000390: 3d3e 3bbf 0276 f4bf 609d e440 74ab 6440
000003a0: 5430 b13d 6781 94bf 713f 22c0 9ea1 30c0
000003b0: 467c 0240 2ee9 0a3f 4a7b e73f 5d1f ee3f
000003c0: 1bd1 6140 35fc e2c0 70e4 dcbf 468a b2be
000003d0: 3dfb 64c0 fde6 a4c0 10ff 8b40 0afd d9be
000003e0: 4445 abc0 37c4 cf40 48c8 4fc0 9486 c7be
000003f0: bd96 033f 6bdf 3c3f a432 e6bf 5b74 4640

lstm.bias_hh_l0 f4 [256]
-1.5235889 -1.8176993 1.6696517 1.7278053 0.99979305 4.940149 5.421235 2.9497135
3.1707466 -2.4267955 -0.20023227 -0.55613923 3.9451218 -1.1467526 -2.8073168 -4.952592
9.815285 2.8140461 -3.1691935 -0.44841304 1.3322697 -2.507661 6.523044 -2.1310985
-2.750304 0.34289727 -1.7848178 -0.49273074 -1.3213009 4.5149355 4.0060234 2.3789322
4.6693945 6.738107 5.703599 3.4774454 3.9827988 -3.7735553 1.723211 -0.32054743
7.235396 -3.7913265 -3.6191328 8.008495 -2.2294962 1.4891858 0.58087146 -0.55522734
2.3947752 -5.0573654 -3.5441341 -0.24134025 2.6349368 4.066761 3.0361729 1.287173
-4.7312975 6.6631875 3.0018272 2.3825126 1.212546 -2.7675858 0.051715337 5.2421675
-5.9903016 -2.4821322 -0.5658929 5.614877 -1.1792297 -2.3888826 -0.88071346 0.637105
-2.6973593 -1.2064556 -0.39446282 0.74038213 -1.4365723 7.9459114 -2.6273768 -1.0759509
-0.97258466 -2.5866814 0.21314837 1.2568647 -1.5561842 -0.2884819 -3.5921433 6.9187155
-2.9754217 5.838975 -3.7108212 1.2977042 -3.532678 -4.4233027 -4.0028925 0.07411384
4.4975934 1.9789212 -4.246591 -0.06273539 -3.9611766 1.7542446 4.2214866 -1.2792234
1.687062 0.1297353 -2.1341832 -1.1115204 -2.1171715 -2.2482011 2.6885302 3.2270613
1.9192873 -3.5590167 -2.1847472 1.9291745 1.2529709 0.9521727 3.5522652 0.26108402
-0.60874116 8.8870945 4.3099365 0.03228442 -0.07172417 -2.938882 2.7544513 7.3426924
-1.9038405 2.5943053 1.075203 3.0494988 -0.6567701 -8.645168 1.9697621 6.80668
6.270884 -3.218647 2.8575227 6.3479986 2.2572982 2.6471672 8.93556 -1.1126995
1.2783605 -1.33514 3.1069324 -4.996776 5.001883 -5.2948685 -1.9995807 1.1162459
0.58377874 -2.9695263 5.6985426 7.206302 -6.0956087 3.3794422 3.4473636 -3.4737277
-1.248309 -8.438175 4.2110906 -7.8306284 5.491991 4.1876574 -4.374329 1.0108259
6.3381205 2.8446634 1.0090109 6.1898704 1.4184887 3.8384752 6.9362154 1.540324
-8.556675 5.871741 -1.9693471 -0.23863052 1.8224028 -1.2049286 -1.9656242 8.886783
-1.4386653 -10.625232 -6.400477 8.640225 6.1008325 -0.598062 -2.9206572 7.364421
-2.5773256 2.1141555 -1.9551848 -2.616225 2.5100806 -4.6774282 -1.5720037 8.365242
4.433373 -7.634078 5.2831326 2.677244 -5.3396955 2.7441478 2.2407632 1.8778911
1.9096092 -4.0014453 -6.193412 5.1651306 3.0783577 -8.350352 -0.3929456 -0.666224
0.15597992 -6.247217 3.3263195 -8.769495 0.73416466 -1.9443085 0.3600288 0.7011808
3.1130147 11.734467 -2.0729992 -1.2381351 -0.7601318 -1.9499865 7.19834 3.416151
0.027326759 -1.1479596 -2.412042 -2.7589502 1.9242234 0.57461905 1.6534963 1.9308659
3.6002805 -7.062574 -1.6934867 -0.37579912 -3.6033375 -5.196339 4.4383116 -0.4778567
-5.4711456 6.292564 -3.3042073 -0.59242743 0.53132784 0.53262156 -1.7308924 3.1257737
00000000: f604 c3bf 5faa e8bf 26b7 d53f b928 dd3f
00000010: 70f2 7f3f b315 9e40 c27a ad40 1bc8 3c40
00000020: 83ed 4a40 9e50 1bc0 b009 4dbe 245f 0ebf
00000030: e07c 7c40 cac8 92bf 14ab 33c0 a27b 9ec0
00000040: 680b 1d41 5519 3440 11d4 4ac0 6596 e5be
00000050: d087 aa3f 857d 20c0 c7bc d040 eb63 08c0
00000060: fb04 30c0 3b90 af3e e974 e4bf 3447 fcbe
00000070: 6320 a9bf 5a7a 9040 5831 8040 6d40 1840
00000080: ae6b 9540 939e d740 e283 b640 778e 5e40
00000090: 2de6 7e40 ee81 71c0 2e92 dc3f cb1e a4be
000000a0: 5d88 e740 18a5 72c0 df9f 67c0 cc22 0041
000000b0: 11b0 0ec0 a49d be3f feb3 143f 6123 0ebf
000000c0: ff43 1940 f0d5 a1c0 18d3 62c0 e621 77be
000000d0: cea2 2840 e822 8240 a850 4240 16c2 a43f
000000e0: ca66 97c0 d538 d540 f01d 4040 167b 1840
000000f0: b534 9b3f 2020 31c0 76d3 533d d6bf a740
00000100: 8db0 bfc0 41db 1ec0 5bde 10bf 13ad b340
00000110: 00f1 96bf 74e3 18c0 7076 61bf 5019 233f
00000120: 89a1 2cc0 236d 9abf 08f7 c9be af89 3d3f
00000130: 9ae1 b7bf e844 fe40 f126 28c0 c2b8 89bf
00000140: 4ffb 78bf 308c 25c0 9143 5a3e f1e0 a03f
00000150: 0b31 c7bf e6b3 93be ade5 65c0 1e66 dd40
00000160: 4f6d 3ec0 e2d8 ba40 187e 6dc0 2c1b a63f
00000170: 6517 62c0 b28b 8dc0 b217 80c0 ffc8 973d
00000180: 49ec 8f40 4a4d fd3f 13e4 87c0 6a7b 80bd
00000190: eb83 7dc0 168b e03f 6b16 8740 98bd a3bf
000001a0: a6f1 d73f 55d9 043e 7596 08c0 4d46 8ebf
000001b0: bd7f 07c0 87e2 0fc0 e110 2c40 2c88 4e40
000001c0: 35ab f53f eec6 63c0 e6d2 0bc0 31ef f63f
000001d0: 5a61 a03f 97c1 733f 5058 6340 ceac 853e
000001e0: 76d6 1bbf 8a31 0e41 00eb 8940 ab3c 043d
000001f0: 1fe4 92bd a516 3cc0 ee48 3040 56f7 ea40
00000200: 0cb1 f3bf 1909 2640 40a0 893f fd2a 4340
00000210: 1622 28bf 9c52 0ac1 2a21 fc3f 53d0 d940
00000220: 15ab c840 50fe 4dc0 a7e1 3640 ce22 cb40
00000230: 9377 1040 306b 2940 0ef8 0e41 f06c 8ebf
00000240: 51a1 a33f dee5 aabf fbd7 4640 97e5 9fc0
00000250: 6d0f a040 906f a9c0 43f2 ffbf 25e1 8e3f
00000260: 8672 153f b80c 3ec0 765a b640 079a e640
00000270: 3a0f c3c0 c848 5840 9ba1 5c40 8e51 5ec0
00000280: 97c8 9fbf c402 07c1 41c1 8640 8294 fac0
00000290: 64be af40 4a01 8640 81fa 8bc0 be62 813f
000002a0: e2d1 ca40 f70e 3640 4527 813f 6b13 c640
000002b0: 0a91 b53f 94a9 7540 7af5 dd40 5629 c53f
000002c0: 24e8 08c1 4de5 bb40 9113 fcbf 8f5b 74be
000002d0: 7f44 e93f 1a3b 9abf 9399 fbbf 4330 0e41
000002e0: 2f26 b8bf f300 2ac1 b5d0 ccc0 5d3e 0a41
000002f0: 053a c340 971a 19bf 0cec 3ac0 56a9 eb40
00000300: e7f2 24c0 534e 0740 7f43 fabf 3b70 27c0
00000310: 29a5 2040 7ead 95c0 6b37 c9bf 08d8 0541
00000320: 31de 8d40 5e4a f4c0 6c0f a940 f757 2b40
00000330: c9de aac0 1ea0 2f40 aa68 0f40 bc5e f03f
00000340: 136e f43f d70b 80c0 6e30 c6c0 c048 a540
00000350: d003 4540 0b9b 05c1 2a30 c9be a88d 2abf
00000360: 33b9 1f3e 34e9 c7c0 6be2 5440 da4f 0cc1
00000370: 37f2 3b3f 1adf f8bf b255 b83e 9680 333f
00000380: a23b 4740 60c0 3b41 05ac 04c0 367b 9ebf
00000390: ff97 42bf 2899 f9bf cd58 e640 38a2 5a40
000003a0: 5edc df3c 57f0 92bf e55e 1ac0 a492 30c0
000003b0: f44c f63f 3c1a 133f c4a5 d33f 9d26 f73f
000003c0: ff6a 6640 9b00 e2c0 2cc4 d8bf be68 c0be
000003d0: 159d 66c0 6948 a6c0 a606 8e40 a2a9 f4be
000003e0: a013 afc0 af5c c940 2278 53c0 53a9 17bf
000003f0: 1a05 083f e359 083f e28d ddbf ad0c 4840

fc.weight f4 [1, 64]
-1972.3441 -1756.7244 1772.0231 1919.2235 -1890.8671 -1940.5663 -1915.2499 1806.7689
1846.6636 -2006.9955 -1893.4237 1855.8851 -2001.8248 -1883.5798 1991.5857 -1889.2415
1809.7968 1905.0326 2030.487 -1862.0779 1791.5946 -1940.9786 -1824.611 1899.0151
-1915.7874 -1856.7926 1904.4368 1936.5736 -1914.2864 1910.4633 1887.467 -1838.0547
1836.6274 -1783.6035 1931.6089 -1784.8259 1836.9076 -1908.9764 1903.0204 1831.8126
1961.3094 1927.1027 -1770.0079 1791.6215 1975.8303 1925.4531 -1898.1669 -1949.2472
-2006.296 2007.739 -1931.304 1976.1566 1985.1816 -1981.3591 -1805.9508 1874.5234
-1959.0896 -1804.5294 -1850.5741 1995.8793 1913.7472 -1869.6846 -1833.8433 -1898.7416
00000000: 038b f6c4 2e97 dbc4 bd80 dd44 27e7 ef44
00000010: bf5b ecc4 1f92 f2c4 ff67 efc4 9bd8 e144
00000020: 3cd5 e644 dbdf fac4 8fad ecc4 53fc e744
00000030: 653a fac4 8e72 ebc4 bef2 f844 ba27 ecc4
00000040: 7f39 e244 0b21 ee44 96cf fd44 7ec2 e8c4
00000050: 07f3 df44 519f f2c4 8d13 e4c4 7c60 ed44
00000060: 3279 efc4 5d19 e8c4 fa0d ee44 5b12 f244
00000070: 2a49 efc4 d3ce ee44 f2ee eb44 c0c1 e5c4
00000080: 1494 e544 50f3 dec4 7c73 f144 6e1a dfc4
00000090: 0b9d e544 3f9f eec4 a7e0 ed44 01fa e444
000000a0: e729 f544 49e3 f044 4140 ddc4 e3f3 df44
000000b0: 92fa f644 80ae f044 5745 edc4 e9a7 f3c4
000000c0: 79c9 fac4 a6f7 fa44 ba69 f1c4 0305 f744
000000d0: d025 f844 7eab f7c4 6dbe e1c4 c050 ea44
000000e0: dee2 f4c4 f190 e1c4 5f52 e7c4 237c f944
000000f0: e937 ef44 e8b5 e9c4 fc3a e5c4 bb57 edc4
